model_artifacts/model.pth (torch, 586972 bytes, 9 tensors)

model.0.weight f4 [218, 10]
00000000: cacf 1c3d 9211 593e 15ba 9b3e 3c42 243e
00000010: 1d87 3b3c 6699 91be 46a1 133e e3cb 05bd
00000020: 18ea 47be a82c 473e 3970 5cbe 7082 823e
00000030: c85f 653e d61b 823e 6e0d 043e 12d2 56be
00000040: ac12 e3bc 3394 163e 30f9 1a3d e024 883d
00000050: cd0d 46be bf9c abbd a222 6a3e 2219 703e
00000060: 842c bd3d cef1 21bc e28f 313e 7894 07be
00000070: 5f12 773d e624 06be 711f e1be 45a0 c83d
00000080: d8f0 ec3c c118 50bd f202 48be f98d bcbd
00000090: 2588 253c 6383 803d 028a 76be 93b7 3a3d
000000a0: 9397 b83e f86b 173e b7bb 0bbe 1b0e c53c
000000b0: 96a7 633e b14c 433e 2587 383e 2327 16be
000000c0: 8b20 92be 5fcc c53d 2f50 843c 35fc 043b
000000d0: 43d9 1a3e 94a3 8fbe 27b0 cb3e 60e0 7c3e
000000e0: de26 a43d b7fb 15be fab5 1a3e badd a6be
000000f0: 0870 2cbe 2139 453e 63c0 b73e f437 093e
00000100: db99 16be 82db 39be 4326 c3bd 8657 8dbd
00000110: 7e7a 603e a7c3 07be cc4c e7bd da7b 93bc
00000120: 4fa2 55be 5c6c 223d ccbe 9ebe a28d 08be
00000130: 0013 9f3d b6f0 bebd 892d 4d3d f819 ec3c
00000140: 7007 ab3e 7c09 7a3c ebd8 473e b9e2 38be
00000150: 0188 50bd 82e9 d7bd fb77 22be 883e e23c
00000160: 50cd 823e 16c7 1e3e ee21 c13d 59ed 13be
00000170: a4fd 023e 29a1 94be a15d 4d3d f3a5 3e3d
00000180: 5318 173e 8951 cc3c 340a ce3d 7137 12be
00000190: 2063 c03e f779 dcbc a87d 9d3e 1f20 943c
000001a0: 0cff 743e 5dae cbbe 0539 4d3e 4778 113e
000001b0: ee6a c4bd 013f d83d 7f76 a63e e9f5 02be
000001c0: 0269 8cbe 1905 593e 178b 45bd 8923 343d
000001d0: 1a7a 04be 16a5 f23d 5edb 703e eae4 363d
000001e0: 0b66 93be 532b 383e 3692 babd 1a65 113e
000001f0: 7c19 af3c 2b0b 9abe fbd7 4e3e 3dff 7e3e
00000200: 0ba8 aebe 70b0 213e 76db b2be 2058 b13d
00000210: 34a5 06be 8858 aabe 88f5 89be c4ec 743d
00000220: 27d8 893e d8d8 17be 07a7 8e3d 404c 1cbe
00000230: a39a 56be 58df babc d647 923e 5f16 0d3e
00000240: 769e 9bbd b791 90be 8cd9 92bd 4a84 053e
00000250: c61d 86be 34c9 a6bd 9281 1b3e 2d8a 8cbe
00000260: d7c0 7fbd 2d40 653e daaa 6bbd db9a 1dbd
00000270: 76f0 733e acbb 6c3e 2f52 5e3e 2f8f 973e
00000280: cfd7 913e 1b4d 013e f7fd f5bd b36e edbc
00000290: 8531 a53d 7fa0 b4be 6746 0c3e e491 7a3e
000002a0: 82ce 843e 914e 093e 5f23 9abe e0f1 5d3e
000002b0: ce3e 2f3e 1b2b b5be 2689 0f3e da7f 403e
000002c0: bbca 4b3e 26d0 893e 3964 c83d 4090 83be
000002d0: 023c 633d d685 8bbd 3625 85bd 9515 1abd
000002e0: 7d15 89bd 5643 e7bd b6cf 2d3e 5f73 863d
000002f0: 0a0f 25bc b2f3 b1be 1a30 c6bd cd0a 69be
00000300: 2a9a f43d 2f2b a63d 7ee4 6a3d 51b7 7d3e
00000310: f7c4 0dbd e32c 8fbe 230a e5bd 76cb 9a3e
00000320: bfe3 9abe acca b03e 85fb 0a3e 92cd 693d
00000330: 5dae 29be 93c0 463e 01e2 30bc 25ab 8cbe
00000340: b6ef 013e 4cb9 453e 4646 283d 5aaf 28be
00000350: 26f3 833e c282 a4be 7596 94bd f414 573d
00000360: b03b 30be aadb 653e 92f7 b7bd bc1a 8d3e
00000370: de22 ddbd 0f61 d53d 39fb 23be 1599 9fbe
00000380: 8848 8bbe 0d33 5e3d 718a c3bd 0c6b cd3e
00000390: 11ee 9e3e 25dc db3d cd8f 383e 2b1c 1a3e
000003a0: b8fc 88be 8856 35be 9ac3 6c3e e74b e53d
000003b0: 14cf 0fbe e161 683e 4436 033e 8bb9 25be
000003c0: 8db3 5b3e e2c1 513d f65d 52be b1c4 65be
000003d0: 10eb 2fbe 3add ad3b 7a7f ad3b 37c5 0ebe
000003e0: 298d 873e a828 b43e 9b0f 623e 23ef 62be
000003f0: b6f1 24be 5729 32be 00df 14bd 10a3 77bd
0.0382841 0.21198109 0.30415407 0.16040891 0.011445788 -0.28437346 0.1441699 -0.032665145
-0.19522893 0.19450629 -0.21527185 0.2549014 0.22399819 0.25411862 0.12895748 -0.20978573
-0.027718864 0.14704971 0.0378353 0.06647658 -0.19341202 -0.08379506 0.22864774 0.23447087
0.09237006 -0.009884311 0.17340043 -0.1324023 0.060320254 -0.13100013 -0.439693 0.09796194
0.028923437 -0.050804857 -0.19532374 -0.09206767 0.01010326 0.0627506 -0.24076083 0.045585226
0.36053142 0.1478728 -0.13645826 0.024054578 0.22231898 0.19072224 0.18020304 -0.14663367
-0.28540453 0.09658121 0.016151516 0.0020291929 0.15121941 -0.28054488 0.3978283 0.24694967
0.08015226 -0.14646803 0.15108481 -0.3259104 -0.16839612 0.19260074 0.35888967 0.1340025
-0.14707129 -0.18150142 -0.09528782 -0.069014594 0.21921727 -0.13258229 -0.11293945 -0.018003393
-0.20862697 0.03965412 -0.3100494 -0.13335279 0.07767296 -0.09323256 0.050092254 0.028820977
0.33404112 0.01526105 0.19516341 -0.18055238 -0.050910953 -0.10542585 -0.15866081 0.027617708
0.25547266 0.15505633 0.094303 -0.1444601 0.12792069 -0.29029205 0.05013812 0.04654498
0.14755373 0.024941223 0.1006054 -0.14278962 0.37575626 -0.026913626 0.3075993 0.018081723
0.23925418 -0.39781466 0.20041282 0.14206038 -0.09590708 0.10558892 0.3251228 -0.1278912
-0.27423865 0.21193351 -0.04822835 0.0439792 -0.12937203 0.11847894 0.23521182 0.044651903
-0.2878879 0.17985277 -0.09109919 0.14198723 0.021374457 -0.30086645 0.20199578 0.24902053
-0.34112582 0.15789962 -0.3493306 0.08659387 -0.13148957 -0.3327067 -0.26945138 0.05979611
0.26922724 -0.14828813 0.06965452 -0.15263462 -0.20957427 -0.022811577 0.2857043 0.13778065
-0.075985834 -0.28236172 -0.071704 0.13038746 -0.2619459 -0.08143845 0.15186146 -0.2744917
-0.062439766 0.22387762 -0.057535984 -0.03847776 0.23822197 0.23118466 0.21711038 0.29601428
0.2848496 0.1262707 -0.120113306 -0.02898345 0.08066086 -0.352787 0.13698731 0.24469715
0.25938803 0.13408877 -0.3010511 0.21674299 0.17113802 -0.3538445 0.14017162 0.18798772
0.19901554 0.26916617 0.09784741 -0.25695992 0.05547715 -0.068126366 -0.06501238 -0.03761824
-0.06693552 -0.1129214 0.16973767 0.06564974 -0.010074386 -0.34756237 -0.096771434 -0.22758026
0.11943467 0.08113705 0.057346813 0.24776961 -0.03461167 -0.27963933 -0.11183574 0.30233353
-0.3025188 0.34529626 0.1357251 0.057080813 -0.1657042 0.19409399 -0.010796071 -0.27474323
0.12689099 0.19308966 0.041082643 -0.16473141 0.25771445 -0.3213101 -0.0725526 0.052510217
-0.17210269 0.22447076 -0.08982767 0.2755946 -0.10797666 0.10418903 -0.16013803 -0.3117148
-0.27203774 0.054247905 -0.0954789 0.40120733 0.31041005 0.107353486 0.18023606 0.15049808
-0.2675531 -0.1770879 0.23121491 0.11196118 -0.14043838 0.22693588 0.1281367 -0.1618406
0.21455212 0.05121029 -0.20543656 -0.22438313 -0.17179513 0.0053059133 0.0052947374 -0.13942419
0.26474884 0.35187268 0.22076266 -0.22161536 -0.1610783 -0.17398582 -0.036345482 -0.060458243

model.0.bias f4 [218]
00000000: 33b7 bf3e 7c11 3abe 9a03 c63e db02 623e
00000010: 4a62 a93e 8259 85be 9889 8a3e e5b7 613e
00000020: 2381 733e 02dd af3e c8ff 19be 2d86 febd
00000030: 9268 e5bb d6fa 3b3d 7fee be3e 476c 543e
00000040: adc5 8cbe 6a14 77be c07a 8dbe 8722 90be
00000050: 714d 793e 7891 ecbd 916a a3be 49a8 97be
00000060: 5dd3 b2be 9861 bb3e 9fda 11bd b593 a2be
00000070: ad38 28bd f871 02be a8b5 c7bd 637a 01be
00000080: c4c2 9ebe 3024 26be 9827 543e 8940 993e
00000090: a6c5 283e 9775 89be a659 dc3d 7500 623e
000000a0: da24 493e 2c05 23be 60f3 1e3d c580 54be
000000b0: e00c 413e df68 5b3e 2567 77be ab83 a43e
000000c0: 9e22 53be 5ab0 173e 368a db3c 859d a63e
000000d0: 8433 15be 8f02 153e 3fa9 073e 64ca 63be
000000e0: 90e3 17bc 4f36 aa3e 3af4 c4bd 78f2 b33d
000000f0: c0e9 8c3d 3142 b13e cd5b ab3e 21e5 c23e
00000100: 8326 4b3e 9b86 2bbd 41ad 613e b6f0 7cbe
00000110: d268 37be 8f65 91be 4d3b 8bbe 2653 a7be
00000120: 3fa4 233d 4257 243d 266a 5cbd 3914 5f3e
00000130: 2c80 44be 4078 b1bd c651 253e 58f9 ca3c
00000140: 4812 84be 4b8c b13e 4a29 6cbd 5ed5 cfbd
00000150: f8b6 d13d 633f 0fbe f352 0bbe 54fa 8dbe
00000160: 673b 6b3c 9751 21be 8c94 803e 0cc6 ff3d
00000170: c1a6 70be 6ccb 79be 1e5b 863d 4242 6abe
00000180: 0cac 3dbe cf66 913e 9260 3d3c daf8 983e
00000190: 49c3 00be 0d19 f83c 9980 b1bb 1637 f23d
000001a0: 33c7 1bbe 347c a93e 7138 5a3e e2de 603e
000001b0: 739c 07be e0b0 9f3e 92d6 4dbe b492 263e
000001c0: 0fcd 453e fda5 923d 1610 6ebe 0294 bf3d
000001d0: a737 4cbc 407a c93d 1ab4 1fbe 6f32 f13b
000001e0: 78df b73e 8672 ac3c 88a2 2bbd e54c 5fbe
000001f0: cf92 c9be 437b b63e 33a2 49be cad9 ba3e
00000200: 7241 b4bc 23a5 a53c 2afe 863e 1011 85be
00000210: 3bb6 6b3c 7280 c13e 44c5 773e d711 c73e
00000220: 283a af3e 8887 873d 8d34 6cbe fdf4 a1bd
00000230: 64c4 1c3e 7aab 93bc 8c31 ca3e 8dc7 7d3e
00000240: e802 33be 132b 84be d2e7 563d 41ab c03e
00000250: 6283 c83d 0394 853d 8cb7 dd3e 84ea 073e
00000260: 85bb 9a3e 3410 c3be b630 6abe 8534 a43c
00000270: ec47 733c 4814 1a3e c7e7 593e 6c6b 1c3d
00000280: ca84 5fbe 5d5f 253e 5145 743d 75d3 a63e
00000290: 68fc 0dbe 48fc c23e 2a59 c23e f422 ac3d
000002a0: 8d4d 85be d0f1 9dbe 0f65 64be e940 ad3e
000002b0: e71e d6bc 2d2f 873e 7c68 0a3e 8e6e 72be
000002c0: f1f6 1f3e d0b6 9d3d ef28 d33d bd58 c23e
000002d0: fa4f 4e3e ac7d 9f3e a5c9 a53e eb12 d33d
000002e0: 4cc5 11be 19cd b43e 8d46 39bd 1ab2 913e
000002f0: a7c6 883e 5b86 82bd 06d3 673e 0135 ef3d
00000300: 00dd 9ebd bd2d 7cbe 1cbd 8bbe 4dbc aa3e
00000310: 3d26 a43e fb93 1dbd 8a8e 2a3d 62f0 b23e
00000320: ca63 cabd a212 8ebe 9397 b03e 1361 28be
00000330: ec63 93bd 0864 9b3e bb67 a9be 84fb b53e
00000340: 56b6 47be b38d 793e 26bc 243d b643 083e
00000350: 7a03 963e ff55 a1bd b74d 7cbe 432d 35be
00000360: d096 3f3e db5d 3c3e
0.37444457 -0.18170732 0.38674623 0.22071402 0.330828 -0.26044852 0.270581 0.22042806
0.2377973 0.34348303 -0.15038979 -0.12427936 -0.007000991 0.045893513 0.37291333 0.2074443
-0.27494565 -0.24128881 -0.27632713 -0.28151342 0.24345948 -0.115511835 -0.3191724 -0.2962058
-0.34926882 0.36597896 -0.035608884 -0.31753317 -0.041069675 -0.12738788 -0.09751445 -0.12644343
-0.3100797 -0.16224742 0.20718229 0.2993205 0.16481647 -0.26847526 0.107592866 0.22070487
0.19642964 -0.15919942 0.03880632 -0.20752247 0.18852568 0.21426724 -0.2416044 0.32131705
-0.20618674 0.14813367 0.026799303 0.32542053 -0.14570433 0.14551757 0.13248156 -0.22245175
-0.009270564 0.3324456 -0.09616895 0.087864816 0.06880522 0.34620813 0.33468476 0.38065436
0.1983891 -0.041876417 0.22038747 -0.24701199 -0.1791108 -0.28397796 -0.2719368 -0.32680625
0.03995156 0.040122278 -0.05381217 0.21785058 -0.19189519 -0.08665514 0.16144475 0.0247771
-0.25795197 0.34677348 -0.057656564 -0.101481184 0.10239977 -0.13989024 -0.13605861 -0.27730048
0.014357424 -0.1575378 0.25113332 0.12488946 -0.23501112 -0.24394006 0.06560348 -0.22876838
-0.18522662 0.2839875 0.011558669 0.2987736 -0.12574495 0.030285383 -0.0054169414 0.11826913
-0.15212707 0.33102572 0.21310593 0.21960023 -0.13243274 0.31189632 -0.20101383 0.162669
0.19316505 0.07160566 -0.23248324 0.09354402 -0.01246444 0.098377705 -0.15596047 0.0073607485
0.3591268 0.021050703 -0.04190305 -0.21806677 -0.3936982 0.35640916 -0.1969078 0.36494285
-0.022003863 0.020220345 0.26365787 -0.2598958 0.014386709 0.37793308 0.24196345 0.38880798
0.34224057 0.066176474 -0.23066922 -0.07908056 0.15309292 -0.018026102 0.39490926 0.24783154
-0.17481577 -0.25814113 0.052467175 0.37630656 0.09790684 0.065223716 0.43304098 0.13273054
0.3022119 -0.380983 -0.22870144 0.020044575 0.0148486905 0.15046799 0.21279822 0.038188383
-0.21827999 0.1614966 0.059636418 0.32583204 -0.13865817 0.380831 0.37958652 0.08405104
-0.2603573 -0.3084855 -0.22304176 0.33838585 -0.026137782 0.2640318 0.1351642 -0.23674986
0.15621544 0.07700884 0.10310542 0.37958327 0.20147696 0.31150568 0.32380405 0.10306343
-0.14235419 0.35312727 -0.045233298 0.28456193 0.2671406 -0.063732825 0.22639093 0.116800316
-0.07756996 -0.24626823 -0.27292717 0.33346787 0.32060423 -0.038471203 0.041639842 0.34949023
-0.098823145 -0.2774859 0.34490642 -0.16443281 -0.07196793 0.30349755 -0.33086953 0.35543454
-0.1950315 0.2437046 0.040218495 0.1330708 0.29299527 -0.078777306 -0.24639021 -0.17693047
0.18709874 0.18395178

model.3.weight f4 [218, 218]
00000000: e79f b6bc ac9d f0bb 6a67 91bd e1c0 87bc
00000010: 44f7 253d ad2e 463d 2360 cabd 6889 ac3c
00000020: 1f5d 183d 17e1 72bd 2cb4 0fbd bf21 8f3b
00000030: 5cc8 40bd f992 993a 6a82 8c3c f4d8 0f3d
00000040: c351 aebd 19c3 243d 8526 313d d88e bbbd
00000050: ffc1 87bd b49d d53c d522 afbd a306 9e3a
00000060: c497 09bd 3974 9c3a 42eb a73c 5d61 4e3d
00000070: ea40 3b3c fe51 a13c d282 80bc 441a 0ebd
00000080: 2b9e 283c c8d6 79bd d839 26bd d496 17bd
00000090: 58a5 55bd 9171 053d d45c 5ebd 2ffc 0cbd
000000a0: 3976 e5bc 4f80 2d3c 5b99 db3b 2dd3 9fbc
000000b0: bce6 763c 222d 3ebd 116e 1fbd 926b 843b
000000c0: ac70 a6bd 264c 7bbc 3566 38bd 9483 103d
000000d0: 96cf 8dbd 0e8d 6fbb 3cce 5abd a2a8 60bd
000000e0: 1a3d afbb c7a7 8dbc c90e 88bd 8eb5 cfbd
000000f0: 213c c73c 6df6 b03c 8215 27bd 7974 49bc
00000100: a64e 9fbb 2c29 363d 6d99 cbbc fef2 f8bc
00000110: f5c2 5fbd 9410 c23c 9a16 bcbd dc61 9cbc
00000120: e8df 0ebd 0ed8 2e3d 2b36 e13c 4463 b5bd
00000130: ec06 f8bc 6bbc bcba 1e3d 9e3b 8bf2 b0bc
00000140: d789 4c3d 7687 a9bd 0584 66bc 0218 5f3c
00000150: efcd b1bd c293 833c 4695 6e3c 9409 8bbd
00000160: 9e24 943b 5113 c4bb 60d4 75bb ee0b fdbc
00000170: 741f cdbb 8530 8cbd 84e9 b8bd 7a9f 2bbd
00000180: c7e7 b1bc c882 95bd 417e 123d f5d3 92bd
00000190: 67a0 b5bd a61e a73c ef38 66bd cc23 c1bd
000001a0: e117 323d bb6b e8bc 8ed5 50bd 74ae b83c
000001b0: 9641 3d3c 01dd 3bbd 70ba aabd cb92 2bbc
000001c0: ad5a 93bd 5059 c03c a3dc b138 98f3 9bbd
000001d0: 7b2a b4bb 63f1 7bbd ec8c a5bd 6440 59bd
000001e0: c94f aebd 5690 d3bc 8680 a0bd d39b 23bd
000001f0: 47e6 76bd 80c9 0fbd 73e9 bbbd 6304 27bd
00000200: 4eb9 f7bb 7ceb 483d b665 93bd 5060 01bd
00000210: b1f3 76bd 65e8 2abd 27b6 afbc e941 253d
00000220: ccb8 85bc 2e23 2abd cb78 65bc 1d16 60bd
00000230: d558 a63c c507 4fbd 8bef bebd bc76 bebd
00000240: bdff 413d 2cfd 5bbd f0a0 03bc f53e 84bd
00000250: 0c94 57bd df1b 76bb b559 b7bd 977a 8abd
00000260: 2fd8 f9bc 5d5a f9bc 31e0 bf3b 1187 9cbc
00000270: 78d1 9b3b abf3 613c 8d66 9abc 1bfc cb3c
00000280: 6d87 fc3c 5f63 91bd 9d2b 7cbd 93e5 933b
00000290: e987 4cbb d47b 2b3c 8726 9b3c 1f82 9fbd
000002a0: 2499 b7bb bd0c 103c cae6 7fbc 922d 3a3c
000002b0: 29ca ed3c 1566 a7ba 640b fa3b 5f80 00bc
000002c0: 1a98 2cbd 8642 0e3c cccf b33c 8cab b0bd
000002d0: eddc 963c 1b83 8b3c 94fc 24ba e5ff a0bd
000002e0: b600 aabd d931 8fbd e8b0 533c b1c7 ab3c
000002f0: 6cda 12bd 8672 4cbd 13eb ccbd 2fce d6bd
00000300: 405e 50bc 5b1e b9bd b557 393d 08ca 07bd
00000310: 6f9b a4bc dd93 87bc 083a 1bbd 93f4 42bd
00000320: f158 1dbd 4c5c b1bd d0d0 ccbd f915 3bbc
00000330: 62ce 0fbc 63fc b6bd 43f5 2a3d 070f 5c3c
00000340: 0e74 11bc a8cd e2bc a79a 69bd e58b 97bd
00000350: f4d1 27bc b015 08bd ec4b af3c 8f3c a1bc
00000360: 6861 b5bd 6f33 ae3a 9b76 393d 367b eebc
00000370: b563 c63c f262 bf3c 8e33 55bc aa7d c93c
00000380: 24fe 2b3d cb3d f4ba de1d 043d ebdd 3fbc
00000390: aa6c c53b 8437 27bd e68d 5b3d 1aad 5c3d
000003a0: 5364 dc3c f765 58bd 4f8c 293c 33eb d7bd
000003b0: ecaa 40bd b053 613d 26bd 603d f844 3c3d
000003c0: 7ed3 a4bd 7b2a 373d 408e ee3a e525 433d
000003d0: 827b bbbc b558 76bd 19d2 4d3d 7979 133d
000003e0: 69b6 b23d 796f a0bd 5875 17bd da05 6b3d
000003f0: 6cf3 243d 9adc b4bb d0a5 763d 4cc1 143c
-0.022293044 -0.0073430147 -0.07099803 -0.016571464 0.040519014 0.048384357 -0.09881618 0.021061614
0.037198182 -0.059296694 -0.035083935 0.0043680365 -0.047066078 0.0011716775 0.01715203 0.035119012
-0.085116886 0.040225122 0.043249626 -0.09158105 -0.06628799 0.026076175 -0.085515656 0.0012056421
-0.033592 0.0011936493 0.020497922 0.05038582 0.011429051 0.019692417 -0.01568738 -0.034693018
0.010291616 -0.060995847 -0.040582508 -0.037009075 -0.052159637 0.03257901 -0.054287747 -0.03442019
-0.028010475 0.010589673 0.006701631 -0.019509876 0.01506966 -0.04642976 -0.038923327 0.0040411437
-0.08126959 -0.015337979 -0.045019347 0.035281733 -0.069243595 -0.003655258 -0.053419337 -0.05484832
-0.00534786 -0.017291917 -0.06643445 -0.10142051 0.024320664 0.02160188 -0.040791996 -0.012295836
-0.0048616705 0.04447286 -0.024853433 -0.030389305 -0.054629285 0.023689546 -0.091839984 -0.019089632
-0.034881502 0.042686515 0.02749165 -0.08856824 -0.030276738 -0.0014399415 0.004829063 -0.021600028
0.04993614 -0.0827779 -0.014069562 0.013616564 -0.08681857 0.016061667 0.014561957 -0.06788936
0.0045209667 -0.005983748 -0.0037510619 -0.030889478 -0.006259853 -0.06845192 -0.090289146 -0.041900136
-0.021716965 -0.07300335 0.035764936 -0.07169334 -0.08868485 0.020400357 -0.05620664 -0.09430656
0.043479804 -0.028371682 -0.05098491 0.022544123 0.011551281 -0.045865063 -0.083363414 -0.01047201
-0.071950294 0.023480088 8.4811145e-05 -0.07614821 -0.005498228 -0.0615095 -0.08083519 -0.053039923
-0.085113116 -0.02582566 -0.07837014 -0.039943527 -0.060278203 -0.035104275 -0.09175386 -0.040775668
-0.007559932 0.0490527 -0.07197134 -0.03158599 -0.060290996 -0.041725535 -0.021449162 0.04034606
-0.01632347 -0.041537456 -0.01400585 -0.05470859 0.02030603 -0.05054452 -0.09323033 -0.092999905
0.04736303 -0.05370824 -0.008033976 -0.064573206 -0.052631423 -0.0037553234 -0.08952657 -0.067616634
-0.030498592 -0.030438596 0.005855583 -0.019107373 0.004755195 0.013791005 -0.018847728 0.024900487
0.030826295 -0.07099032 -0.06156503 0.0045134514 -0.0031208938 0.010466535 0.01893927 -0.077884905
-0.0056029726 0.0087921 -0.015618989 0.011363404 0.029027062 -0.0012771512 0.0076307524 -0.007843106
-0.042137243 0.008682853 0.021949671 -0.0862647 0.018415892 0.01703029 -0.00062937406 -0.07861308
-0.08300917 -0.069919296 0.012920596 0.020969244 -0.035852835 -0.049913906 -0.10005774 -0.10488545
-0.012717783 -0.09038993 0.04524966 -0.033151656 -0.020093648 -0.016549999 -0.03789714 -0.047596525
-0.0384149 -0.08660182 -0.10000765 -0.011418813 -0.008777233 -0.08934858 0.041737806 0.013431317
-0.008877767 -0.027685955 -0.057032254 -0.0739973 -0.010242928 -0.033223808 0.021398507 -0.019682197
-0.088564694 0.0013290475 0.045279127 -0.029111486 0.024217466 0.02336261 -0.01301278 0.024596054
0.041990414 -0.0018634138 0.032255046 -0.011710624 0.0060249167 -0.04082443 0.05360212 0.05387602
0.026903307 -0.052831616 0.010348394 -0.105429076 -0.047038004 0.05501145 0.054867886 0.04596421
-0.080481514 0.044718247 0.0018200353 0.04764356 -0.022886042 -0.06014319 0.050249193 0.036004517
0.08726198 -0.07833762 -0.036977142 0.057378627 0.040271208 -0.005519462 0.060216725 0.009079289

model.3.bias f4 [218]
00000000: a1a3 9e3b 3b66 f63b b605 f5bc 0b13 f0bc
00000010: 9dd2 c73c 33a6 bc3d 36e8 a73d aed4 76bd
00000020: 9b3d 19bd 93b8 9dbd 17be 203e 70df 0a3e
00000030: eec6 883d b772 fe3d 6ed0 f53d e153 3f3d
00000040: d3cc ff3c da1f ac3d 0c48 8bbd c896 103d
00000050: c117 b2bd 992e 293d b86e f83c b762 a3bd
00000060: 9093 f23d 579b 223d 1af8 383d cc8a 7c3d
00000070: 6cb1 1cbd 46ab 0c3e 4e1e c93d 7bac ae3d
00000080: c5d6 43bd 5ca6 ef3d 625a 7fbd 4079 0cbd
00000090: c555 543d c7d7 f63d c2e0 923d 3262 e73d
000000a0: 2669 293e 74e0 193e 08fc 083e a64f c33d
000000b0: 80ea 08bd a920 c53c 714e e03d 173e 383c
000000c0: e062 b9bd 1762 343c 0c05 023d d943 da3d
000000d0: dc27 17bd 100b 093e 8f34 09bc 68d6 b33d
000000e0: 2c73 6fbd c718 9f3d 207c 633d fdf3 f4bc
000000f0: 8ee4 063e 4265 ac3d 1241 ea3d 8288 5f3d
00000100: 40b9 94bd 6cf5 65bd b900 a03d 43bb 84bc
00000110: 7372 5fbd 215a bb3d d4e8 833d aecd 9bbd
00000120: a2c6 5c3c 83bf 133e 92d4 d33d 2cbf 1b3e
00000130: 3aa7 7dbc 1505 473d 4e95 093e 6a4e fa3d
00000140: c4ad aebc 4fee 393d 026e 823c cd89 473d
00000150: 77af 473d 1574 a93d b9c8 843d a618 83bc
00000160: 02b0 093e 3f78 073e 3148 053e 5433 0b3e
00000170: 6538 c0bd 5e1e 293e f49d cdbd 88e6 123e
00000180: 2701 523d c452 093e 6b8a ab3d 6611 d93d
00000190: 2108 dabc ddc2 093e d2bb d43d e7f7 e43d
000001a0: ad7b a6bd 3ef7 c93d ce94 87bc 4c1d 073e
000001b0: ee2a 243d 78c7 f33d 2594 e1bc e667 af3d
000001c0: cba0 fb3d c148 163e 2274 ae3d 84d4 263e
000001d0: 7bf2 83bd daef 543d 7a89 93bc 696c 0e3d
000001e0: d238 983d d00c 2b3e 6fff c13d 72f9 d93c
000001f0: 0c54 cf3d a958 0a3e d93c 23bc e834 543c
00000200: 1b5b 1d3e 0bae 7ebc fed1 1b3e 705e 353e
00000210: 7b85 be3d b510 79bc fdd7 103d a137 013d
00000220: 028d 123d 62ff d6bc 5e66 1f3e 4960 58bc
00000230: 1941 103e a676 bb3d 8c22 9cbd 7373 1f3c
00000240: 8c7b a93d b776 cb3d 9f22 343a aa4a 6a3b
00000250: 49d8 b73d df7b 0a3e f616 f73d 871c 193e
00000260: 1c8a 8f3b f598 19bd a07e 183e 903d 263e
00000270: 00ff 9cbd 0c36 b13c f99d 3ebd 8558 cd3d
00000280: e345 a0bd eb60 a43b b48a f73d 1a49 e53d
00000290: ac7b ee3d a39f 003e bc70 9e3c c922 babc
000002a0: e518 313d 7e32 ae3d 5ab4 263d 79fc 79bd
000002b0: fb0a e83d 28ba 2b3d 8f0a 123d 8c1e 073e
000002c0: da40 103c a642 bfbd d3ca 0abc 2ffc 03bd
000002d0: 1d22 113e cb5c b73d 4950 143e 65e2 133d
000002e0: 6e89 f9ba 9fac debc 39d6 1d3d 7665 9d3d
000002f0: 6926 e5bc 403f 98bb dad6 1f3d 97c6 063d
00000300: 5e36 063e 65a6 103e ce52 d03d b565 d33d
00000310: b4c2 983b 6d54 133e c358 b0bd 6cde a83d
00000320: b3f7 a0bc 0ecf 573d 47b4 9e3d 2e03 233e
00000330: 6ef8 6d3d 0ab4 ab3d 87df cd3d 9f5f b7bd
00000340: 1c39 fd3d fcb5 843c 52a9 013e 5556 48bd
00000350: 7546 2b3e 6fe7 f7bb a79c 4b3d 1e74 173e
00000360: 22d4 bd3d 5cd6 e43d
0.0048412834 0.007519511 -0.02990995 -0.029305955 0.02439242 0.092113875 0.081985876 -0.06026142
-0.037412267 -0.0770122 0.15697514 0.13561797 0.06678568 0.12424224 0.120026454 0.046710853
0.031225597 0.08404513 -0.06800851 0.035300046 -0.08695937 0.041304205 0.030326232 -0.07977813
0.118445516 0.039698925 0.045158483 0.061655805 -0.03825514 0.1373721 0.09820233 0.08528992
-0.047812242 0.117016524 -0.062342055 -0.03429532 0.05183961 0.12052875 0.071717754 0.11298026
0.16544017 0.15027028 0.13377392 0.09536676 -0.03342676 0.024063425 0.109524615 0.011245272
-0.09052062 0.011009715 0.031743094 0.10657472 -0.036903247 0.13383126 -0.008374347 0.08781129
-0.058459446 0.07768398 0.055538297 -0.029901499 0.13173124 0.08417751 0.114381924 0.054573543
-0.07261896 -0.056142256 0.07812638 -0.016202575 -0.054552507 0.0914805 0.06440893 -0.0760759
0.013475092 0.14428525 0.10343279 0.15209645 -0.015481764 0.04858883 0.13435861 0.122219875
-0.021323092 0.045393284 0.015921596 0.0487154 0.04875132 0.08274094 0.06483597 -0.016002964
0.13446048 0.13229464 0.1301582 0.13593799 -0.093857564 0.1651549 -0.10039893 0.14345753
0.05127063 0.13410479 0.083760105 0.105990216 -0.026615204 0.1345324 0.103873864 0.11180096
-0.08129058 0.09861611 -0.016550448 0.1319477 0.040080003 0.1190328 -0.027536461 0.08564739
0.12286528 0.14676191 0.08518244 0.16292006 -0.06442734 0.051986553 -0.01800989 0.034771357
0.074327126 0.16704106 0.09472548 0.026608203 0.101234525 0.13510384 -0.009963238 0.012952067
0.15366785 -0.015544425 0.15216824 0.17711806 0.09302803 -0.015201737 0.035362232 0.031547192
0.035779007 -0.026244823 0.15566394 -0.01320655 0.14087333 0.0915349 -0.07623777 0.009732115
0.08275518 0.099347524 0.0006871614 0.003575007 0.089768 0.13523816 0.12064926 0.14952289
0.0043804776 -0.037499387 0.14892054 0.16234422 -0.07665825 0.021632217 -0.046537373 0.100266494
-0.0782583 0.0050164363 0.120870024 0.11195584 0.11644682 0.12560897 0.019340865 -0.022721665
0.043236632 0.08505724 0.04069934 -0.061031792 0.11330219 0.04192558 0.0356546 0.13195246
0.008804524 -0.09338884 -0.008471209 -0.032222923 0.1417317 0.08953246 0.14483751 0.03610458
-0.001903815 -0.027181922 0.038534377 0.07685368 -0.027972417 -0.004646212 0.039023258 0.032904234
0.13106677 0.14125974 0.10172044 0.103221335 0.0046618823 0.14387675 -0.0861068 0.082455486
-0.019649362 0.052687697 0.07749229 0.15919182 0.05809825 0.08383949 0.100524 -0.08953785
0.123644084 0.016200058 0.12662247 -0.048910458 0.16726096 -0.007565431 0.049709942 0.14790389
0.09268977 0.11173698

model.6.weight f4 [218, 218]
00000000: 7135 683d 05c1 103c fcf4 263c 5ce0 1fbc
00000010: 17d0 c43c 8e59 093d da43 823d d443 50bd
00000020: 3a23 3d3d d2df 083c 9fad 003b cd94 9b3d
00000030: c8b1 613c f8dc c83c a9f8 b43d 23d0 febc
00000040: 04a0 33bb 82de 5dbd e667 b83d 5ebe b03d
00000050: 9bc5 9a3c 8825 bbbc f593 0fbb 8837 253d
00000060: 3e75 8f3d 9e5f 913d 2382 eb3b ee98 923d
00000070: 794e 4b3d af92 fe3b 0527 b43c da99 983d
00000080: aa22 87bd dd51 963d 4312 473d bc40 70bd
00000090: 6c3d 1abd fa11 9d3d a402 833d 5c04 5f3d
000000a0: 5d71 bd3d 1488 1d3b e926 e4bb 6d8e 8f3c
000000b0: 66e3 9d3c 2465 963d 7cd8 f4bc 9661 be3d
000000c0: d2ef 05bd d4b6 b93c 74d7 27bd 9447 d4bc
000000d0: 08a8 0abd abed 8cbc 6081 27bd 22eb 0d3d
000000e0: dc1d f13b 9a77 193d a943 c23c 93bc 4d3b
000000f0: dc93 983d a00c a13d 3041 4a3d a245 a7bc
00000100: 8c26 673c 320c b9bc bc29 e8bc 4887 7b3d
00000110: 7ec5 623b 65db b63d 191a 1b3d b7f5 153d
00000120: c63f 25bc 51cb ca3d 8478 be3b f99c 233d
00000130: 9e1a c6bc a591 eebb d0f4 02bd 2069 d53c
00000140: 316b 2bbd c9e4 003d 6d99 95bc b7df 103d
00000150: 9ce5 c8bb 6a5c c83c a0d4 c23d 9ac5 0f3c
00000160: 0663 eb3c 22c4 973d a04b d33c 0777 9ab9
00000170: 07a0 c739 f62a 1f3d 5a55 bf3c 73dc 8f3d
00000180: fd31 a53d a9e9 913d 3851 5b3c 5561 1abc
00000190: ded2 963d 256f c53d 642c b03d fd2a dabb
000001a0: 8cfc 163e ff45 ff3c 839a 873d a48a df3c
000001b0: 2de9 7fbc aa06 93bb 7883 a43d 13d0 743d
000001c0: f931 c53c 873b 7c3d ff4c cc3c 5099 59bc
000001d0: 55b8 70bc b96e 743d b03e 993d cb37 613d
000001e0: 0fd2 78bc 24d0 873d 952f 023d 00ac 0d3c
000001f0: 77bd f83c f513 b63d 2d28 5ebd d9ea c9bc
00000200: 693c 493d 28b0 7c3d 6ebb 5b3b 2514 b63d
00000210: c763 a33a 3f40 8a3c 208b 2a3c e906 923d
00000220: 062b f93c b1d1 243d 0d33 3fbc 7265 293c
00000230: ddaa 843d 8c57 dc3d 0b89 f23c 0ac7 1cbd
00000240: cc66 473d 724b 213d 176e 2ebd d2d6 673c
00000250: 2c3d 523d edf9 9d3c 978d 0d3c baf3 b8b9
00000260: 79c8 9abc ffc1 6abc 6358 acbc 215f b63c
00000270: 28a2 043c 2cf7 c73c 560f 08bc 0e71 803d
00000280: 0454 683d ff09 fa3c 53c2 35bc 5620 16bd
00000290: 2b30 8c3d 922a a33d fae3 af3c ff7d bdba
000002a0: 9866 a73d e52a 9c3c eaf9 99bc 9fe0 873c
000002b0: 71d5 643d 6a82 5d3e ffb8 fb3c 1d4b c73d
000002c0: 5f58 83bd 0afa 3c3d 338e 2c3d 0f07 43bc
000002d0: 00a0 ab3c 0df5 883d 00b9 8f3d e785 463d
000002e0: e5ad 8b3d bf7b ecbc 8088 bd3c 85fb 4b3d
000002f0: 35ad 913d cff0 e93c 1bd8 e8bc 3c84 ff3c
00000300: 100d 853d 9bc7 5bbc 5566 e9bc b763 983d
00000310: 1e72 d83c f689 b33d 6d2b 603d 4ca9 2ebb
00000320: 65f7 983c fb4d 9bbc 7492 f43c eff5 aa3c
00000330: 51e2 c8bb 1dfe ae3c 920f 623d 221a 14bd
00000340: 4f8e 413d 8f25 b33d 4d86 dd3d 650c 633d
00000350: 4fc0 28bc 468a 0cbd c95e 443d 22c6 883d
00000360: 8b50 f6bc 3aaf ad3c e869 cbbc 74cf 183d
00000370: 94a7 77bd e8fa df3c 4efb 78bc eb58 4b3d
00000380: ec1f 683d b5c8 763d 6f3a 2b3d 1f60 4b3c
00000390: d365 c1bc 174b 5cbc 9498 83bd 0825 873b
000003a0: b30c 4a3d 7f96 89bd ebfa 7d3d 4d8d ebbc
000003b0: 84a7 e43c 24bb 12bd b5d4 323c f3f0 8bbb
000003c0: f537 86bd 8a07 eb3b 5eae ecbb e710 c3bc
000003d0: ebe7 3d3d 2842 f63c ebd9 28bc 8402 9f3c
000003e0: a437 63bd 3b46 78bd e549 81bd 3f49 853d
000003f0: 5b68 443d b4d1 1e3d 1893 023d 31f4 afbc
0.05669159 0.008835082 0.010190245 -0.009758081 0.024025006 0.03353267 0.06360598 -0.050845936
0.046176173 0.008354144 0.0019634736 0.07596741 0.0137752965 0.024519429 0.08836491 -0.031105107
-0.002740861 -0.054167278 0.09004192 0.0863006 0.018893054 -0.022845045 -0.0021908258 0.04033616
0.07004784 0.07098316 0.0071871444 0.07158075 0.049635384 0.007768951 0.021991262 0.0745122
-0.065984085 0.07339833 0.0486014 -0.058655486 -0.037656233 0.076694444 0.06396988 0.054447517
0.09250138 0.0024037408 -0.0069626463 0.017523969 0.019273471 0.0734351 -0.029888384 0.09295957
-0.032699414 0.022670187 -0.040976956 -0.025913037 -0.033851653 -0.017203173 -0.040894866 0.03464807
0.007358296 0.037467577 0.023713904 0.0031392917 0.07450077 0.07863736 0.049378574 -0.020418946
0.014108311 -0.022588823 -0.028340213 0.06140831 0.0034602578 0.08928565 0.037866686 0.036611285
-0.010086006 0.09902061 0.0058127064 0.039944623 -0.024182614 -0.007280546 -0.031971753 0.026051104
-0.041850273 0.031468187 -0.018261636 0.0353696 -0.006130887 0.024458129 0.09513211 0.008775139
0.028733741 0.07410456 0.025792897 -0.0002946185 0.00038075467 0.03885933 0.023356128 0.07024469
0.08066175 0.07124645 0.013386063 -0.00942262 0.073644385 0.0964034 0.08602217 -0.0066579566
0.14744776 0.031161306 0.06621268 0.027287789 -0.015619558 -0.0044868784 0.08032888 0.059768748
0.02407168 0.061580207 0.024939058 -0.013281181 -0.014692386 0.059675906 0.0748266 0.05498485
-0.015186801 0.066314965 0.03178366 0.008646965 0.030363781 0.08890525 -0.054237533 -0.024648117
0.049129877 0.061691433 0.0033528465 0.08890561 0.0012465649 0.016876338 0.010409147 0.07130224
0.030416023 0.04023904 -0.011669886 0.010339128 0.06477902 0.10758886 0.029606363 -0.038275756
0.04868202 0.03937859 -0.04258546 0.014150338 0.05132787 0.019284213 0.008639715 -0.00035276805
-0.018894421 -0.014328479 -0.02103824 0.022262158 0.008095302 0.024409853 -0.008304438 0.062715635
0.05672075 0.030522345 -0.011093694 -0.03665193 0.06845125 0.07967104 0.021471012 -0.0014457105
0.08173865 0.019063422 -0.018795926 0.0165866 0.055867616 0.2163178 0.030727861 0.097311236
-0.0641334 0.046136893 0.0421278 -0.011903538 0.020950317 0.06687365 0.07017708 0.048467543
0.06820277 -0.0288676 0.023136377 0.049800415 0.07113115 0.02855721 -0.02842336 0.031190984
0.06496632 -0.013414289 -0.028491179 0.07440894 0.026421603 0.08766548 0.054728914 -0.0026651202
0.018672654 -0.018958082 0.02985499 0.020869223 -0.0061304946 0.021361405 0.05519063 -0.036157735
0.047254857 0.08747398 0.108166315 0.055431742 -0.010299756 -0.034311555 0.047941957 0.06678416
-0.030067703 0.021201719 -0.024830773 0.037307218 -0.06046255 0.027341321 -0.015196634 0.049645346
0.056671068 0.060250003 0.041803773 0.012413054 -0.023608124 -0.013445637 -0.06425586 0.0041242875
0.049328517 -0.06718158 0.062006872 -0.0287539 0.027911909 -0.035823002 0.010914971 -0.0042706667
-0.06553642 0.0071725296 -0.0072229346 -0.02381177 0.046363752 0.030060843 -0.010305862 0.01941038
-0.055472985 -0.060613852 -0.063129224 0.06508111 0.047951084 0.038774207 0.03187856 -0.021478744

model.6.bias f4 [218]
00000000: b4ef 523e 4f36 31bd d34e ac3d 0cd5 303e
00000010: c400 133e 859e de3d 6852 1a3e 7187 9a3d
00000020: 0ba4 bd3d 05ca 233e 1c94 eb3c c105 203c
00000030: 6e44 263d f773 84bc 1467 233e 34dc c93d
00000040: 96f7 0abc b741 ad3d 4e25 ac3d c177 c13d
00000050: e23f a6bd 0aa4 d43d a84a 6ebd 19db dd3d
00000060: bc21 a9bc e45a 213e 17ad 8abd cab6 103d
00000070: 0c5f 823d 4c96 963d 9f4e 023e f800 333e
00000080: d323 9ab9 48af 253e 8998 353e fa0f 433e
00000090: f94d e53c 78c3 793d 40b4 053e b267 363e
000000a0: 7748 913d 19bb 0f3e 1445 4f3d 693b 2c3b
000000b0: 5258 88bd b139 bbbc 651e 533d efa9 bb3d
000000c0: 43fa 043e 00b2 203b 1222 1d3e bede 88bd
000000d0: 7249 a53d 0a14 043e 816b 673c 6b3c abbd
000000e0: ad6e 00bd 811f 2d3e 4adf d63d 54b8 1a3e
000000f0: 8cfc 23bd bb4d c73d aae0 9dba a5af a93d
00000100: ff3a adbd 99ad 82bd 7186 f13d 4e43 9dbc
00000110: 13b1 023e abcf 893d dd1d 0e3e f46f ef3b
00000120: d0bf 0a3e 3809 f03d 56b4 513e 0786 fc3d
00000130: 1ad3 88bd cacb 183e eb8c d93c e5ab ee3d
00000140: 2950 9e3d cc3c c13c ba4b a0bd 8dfd b63c
00000150: 9879 25bd fbb4 edbc e229 043e db01 303d
00000160: 4c24 89bd a756 ee3d c18d 8f3d 1cd4 0d3e
00000170: 05c2 3e3e 50fe bbbc 7fe9 2e3e d413 453e
00000180: 2ad3 c23c 26dc aebd 9455 50bd 3333 e23c
00000190: b60f 0bbd 6dd0 8bbd f7f4 143e aeff 363d
000001a0: 13d5 a13c 1c27 103e f430 0f3e 2056 063e
000001b0: 9f73 0d3e cec3 d03d e9d8 a33d 77f6 923d
000001c0: 9fbe e43d 09fd f43d a6c5 a7bc f864 0b3e
000001d0: 8230 0c3e 2bae 3fbd 4300 f43d 91b7 fd3d
000001e0: d11c f13d ffea 903d b869 a1bd 6bde 1d3e
000001f0: cf49 d53d f27f e63d e3c2 9ebb 6b8a 083e
00000200: e8c3 b83d 402d 3abd 8ad0 083e f262 a8bd
00000210: d6cc da3d 6edf 32bd df77 143d efef 913c
00000220: 9638 c83c e107 24bb 760a 1e3e 20ac ad3d
00000230: 8659 143c 0dca e23d b902 473e bf3f 4b3b
00000240: 96eb 1d3e 64a3 70bd 19f9 123e 4535 8d3d
00000250: a499 053d 189a 013e 8a8b a3bc f41e 7f3d
00000260: ca10 103d 13dc 333e 77e8 5f3d a135 91bd
00000270: 9d4f 63bd e74c 073e 52f1 a33d 632f 003d
00000280: 1c68 503d c8d9 a0bd f7ee 8a3d dac6 c63d
00000290: a43c 01bb 01e1 a13d 8437 803d 396b 583d
000002a0: a117 04bd a56b 0b3e f98c 843d 1ba9 af3d
000002b0: e11f 893d bd11 3abb bdc1 83bd 7433 d63d
000002c0: 8071 043e 2150 a1bd 5ac9 aebd 00cd 8bbd
000002d0: 1f6b 9e3d 971a 82bc d597 8fbd 0819 c93c
000002e0: d532 b6bd e42c 94bd 2f65 ce3d 238b 383e
000002f0: f156 043e 059a ff3b 34af e93a 98f1 143d
00000300: 3209 b23b 83e4 f13d 5913 023d 4ec0 533e
00000310: ae49 713d 4e14 163d 1341 3e3e 9296 b6bd
00000320: c9ca c7bc 64c9 c83d c606 74ba ad0b 853c
00000330: e82d 263e aa41 21bc e8d4 013e 05b8 313e
00000340: 59cb 1a3e e478 aabd e181 283e e407 883d
00000350: 866b 453e 23de f23d 430a 243e ad8d 103d
00000360: 0805 85bc da42 b43d
0.20599252 -0.043264683 0.08413472 0.17268771 0.14355761 0.10870079 0.15070498 0.07545365
0.09259804 0.15995033 0.028757147 0.009766997 0.040592603 -0.016168578 0.1595729 0.098564535
-0.008481881 0.084598 0.08405553 0.09446669 -0.081176534 0.103828505 -0.058176666 0.10832805
-0.020645969 0.15757328 -0.067712955 0.03533057 0.06365785 0.073528856 0.12725304 0.17480838
-0.0002939986 0.16180146 0.17733969 0.19049063 0.027991282 0.06097743 0.13057041 0.17812994
0.070939 0.14036216 0.050602987 0.0026280528 -0.06657471 -0.022854658 0.05154266 0.09163272
0.12986092 0.0024520159 0.15345028 -0.0668311 0.08070649 0.1289827 0.014124752 -0.08361133
-0.03135555 0.16906549 0.10491808 0.15109378 -0.04003577 0.09731623 -0.0012045105 0.08285455
-0.08458518 -0.063807674 0.11793221 -0.019197132 0.12762861 0.06729063 0.1387858 0.007307047
0.13549733 0.11720508 0.20478949 0.12330251 -0.066808894 0.1492149 0.026556453 0.1165388
0.07730133 0.02358856 -0.07826944 0.0223377 -0.040399164 -0.029016962 0.12906602 0.04297052
-0.06696376 0.116376214 0.07009459 0.13850445 0.186287 -0.022948414 0.17081259 0.19245845
0.023782331 -0.08538084 -0.050862864 0.027612304 -0.03395053 -0.068268634 0.14546572 0.04467743
0.019754922 0.14077419 0.13983518 0.13118792 0.13813637 0.10193597 0.08000357 0.07175916
0.111691706 0.11962325 -0.020479988 0.13612735 0.1369038 -0.04679696 0.119141124 0.12388528
0.117730744 0.07076072 -0.078814924 0.15416877 0.104144685 0.112548724 -0.0048450097 0.13334052
0.09021741 -0.04545331 0.13360801 -0.08221997 0.106836006 -0.04367011 0.03624713 0.017814605
0.024441045 -0.002502911 0.15433678 0.08480096 0.009054547 0.110736944 0.19434632 0.0031013337
0.154219 -0.05874957 0.14352836 0.06894926 0.032617226 0.12656438 -0.019963998 0.06228538
0.03517226 0.1756442 0.054665055 -0.07090307 -0.055495847 0.1321293 0.080050126 0.03129519
0.050880536 -0.078540385 0.0678386 0.09705897 -0.0019719983 0.07904244 0.06260589 0.05283663
-0.032249097 0.13615282 0.06472201 0.08577176 0.066955335 -0.002839192 -0.06433437 0.10459033
0.12933922 -0.078766115 -0.085344985 -0.0682621 0.077352755 -0.01588182 -0.070113815 0.024548069
-0.08896414 -0.07235125 0.10077893 0.18021826 0.1292379 0.007800343 0.0017828704 0.036363214
0.005433225 0.11811163 0.031756733 0.20678827 0.058908157 0.036640458 0.18579511 -0.08915438
-0.024388688 0.09804037 -0.00093088706 0.016240919 0.1622845 -0.009842316 0.12678874 0.17355354
0.15116633 -0.08323839 0.16455795 0.0664213 0.19279298 0.118587755 0.1601954 0.035291363
-0.01623775 0.088018134

model.9.weight f4 [218, 218]
00000000: b2a4 9abd d692 143d 094e 8b3c 88b1 ce3c
00000010: 8860 123c 1473 3d3d 2981 9dbc 86a9 693b
00000020: f1a3 90bd bb9d 3dbb 5eac f8bc 15b9 6d3d
00000030: a4c7 e83b 83f4 523c d8df e93c ad5e 80bd
00000040: 051b 033d acfe 00ba 413d 1fbd 7a45 a2bd
00000050: 5859 cc3c c4ed 963c 2439 ee3c a58f acbd
00000060: 4939 51bd d1c3 3c3d 87a2 f33c dce8 7abd
00000070: 27f1 65bc 1680 ec3c d8aa 923c 95a6 753b
00000080: 5760 70bd 5863 8fbd 4395 af3c e167 5bbb
00000090: d02f 5cbd b8c8 9cbc 0f0c a6bd cdaa b8bc
000000a0: a2ab 4dbd acaa 96bd 9459 23bd 987a ad3c
000000b0: b4df 623c f3c0 643b 0546 513d 63fc 9f3c
000000c0: d9b9 98bd 9d3a 8e3c d0af 173c 52e8 edbc
000000d0: 7af7 67bd 7d58 1dbc 7c31 47bd 4f2c 723c
000000e0: c389 813c 6bd1 8abd 484e 65bd 860e 92bd
000000f0: 75cb 36bd 38c4 aebb 03ce 56bd a92d 8ebd
00000100: fc6a 823d 928d 013d af23 abba 951a ca3b
00000110: 3a5a dabc b22c 5bbd d86e ddbc 72c2 21bd
00000120: cb49 35bd 7eee 99bd 4dbd ddbc 73e3 043d
00000130: bdb3 083d 1a37 b2bd 11f6 4dbc 8899 6fbd
00000140: 5854 9f3c 192f 6cbd 2846 7d3d cc82 d13c
00000150: 3daf d9bc 93c3 7d3d 9a43 acbd a912 8b3c
00000160: dddc 63bd eb38 2abd e268 b23c fe0a 25bd
00000170: d1f6 85bd fc26 dfbc 50fb 29bd b2a9 003b
00000180: 5abd 98bc 2bb6 4e3d 5e8f 25bd 80da 373d
00000190: 2ade 62bd 5c3a 083d 70b2 89bd f16d 123d
000001a0: bf0c a43c 3ca5 97bd c95d 883b a584 96bd
000001b0: fbe5 9bbd 5faa a7bd 7baa 84bd 620f 2ebd
000001c0: 3c9c 8abd 476b 7abd 6b12 08bc 609a a0bc
000001d0: a29f 143d 7478 8dbc 3948 40bc 516c d4bc
000001e0: 97a8 d83b a9f3 953c 34fa 53b9 6f16 97bd
000001f0: ae7f 1a3c 9fd5 023d 2f1a 213c b26e ecbc
00000200: d1e5 573b 9a4f 8539 9295 7dbb d650 73bd
00000210: ac0f ab3c b3b8 6ebd 3062 86bc 4e57 c43c
00000220: 604b 663d 633e cd3b 7c38 cd3c 4ee5 7c3c
00000230: fc0a 4b3c ba7d 863c f58d f93c 5364 86bd
00000240: a1d4 24bd 525b 56bd 66a1 3bbd fc6a 333d
00000250: cd00 a73c fde8 5dbd 6d33 97bc 4ca0 353d
00000260: 0908 63bd a316 83bd 7b52 083d 257a 2c3d
00000270: d612 ab3c a38b 66bd 5c92 aa3c 35f9 8cbc
00000280: 7fb8 20bc f13c 8b3c 26ff 10ba 381f 823c
00000290: 17ee 133d 37c3 66bd 4ad7 dcbc caa7 c53c
000002a0: d9bc fcbc 999f cb3b eb7d 84bb ed01 c2bc
000002b0: 0ac4 b7bc 0c21 f6bc 050f 80bd 5e12 a5bd
000002c0: 9e84 8a3c 8538 8cbc 1bef d33c 8a67 77bc
000002d0: 5858 3ebd 58f7 583d 04a1 42bc d6d5 81bd
000002e0: 257a 5cbd 16f4 14bc 2119 b73b 1cfd 99bd
000002f0: e879 83bd 7728 2a3d f4a5 663c 227a 66bb
00000300: f1d6 963c edae 9f3c 141a 543c e5f7 49bd
00000310: b875 84bd 28c3 24bd 24dd 2ebd ffe8 893b
00000320: aff2 79ba 37bb c03c a0f4 153d bb97 58bd
00000330: 652b 6dbd 2655 4e3d c61c d5bb 625e 3abd
00000340: e309 3ebd 229e 863c 8b8a 113d c90f 46bc
00000350: 869c 76bd c07c 3bbd 345d 9fbb be25 803d
00000360: 5417 7b3d f24c fe3c a83c 44bb def1 293d
00000370: b3c2 78bd 3969 28bd 5884 143d f4f3 923b
00000380: e100 a13c 5c90 dcbc bfa0 65bd c413 143d
00000390: 568c 0abd e675 2d3d a1e4 f4bc 2ca3 51bd
000003a0: f510 82bd 9b33 1b3b b38c 3d3c 7e72 20bd
000003b0: da16 c4bc aeaa c0bc 7b44 21bd be87 c1bd
000003c0: 0cad 2f3d 8491 15bd 020d 15bd 2c67 d43c
000003d0: ed0a b2bd 293e c9bc f779 023d 0e37 31bd
000003e0: 105e 97bc ccdb 853c 8bb5 303c 190b c33c
000003f0: 7805 253d 1b44 adbd 925a dc3c 6a94 f1bc
-0.075509444 0.036272846 0.017004983 0.025231138 0.008934148 0.046252325 -0.019226627 0.0035654022
-0.07062519 -0.0028933126 -0.030355629 0.058037836 0.007103877 0.012875679 0.02854912 -0.06268058
0.03200819 -0.00049207616 -0.038876776 -0.07923408 0.024944946 0.018423922 0.029079981 -0.084258355
-0.051080022 0.046085183 0.029740585 -0.06125723 -0.014034546 0.02886967 0.01790373 0.0037483324
-0.058685627 -0.0700137 0.021433478 -0.0033478665 -0.053756535 -0.019138679 -0.08107769 -0.022542382
-0.05021251 -0.07356772 -0.03988035 0.021176621 0.01384728 0.0034905046 0.051092166 0.019529527
-0.074573226 0.017361933 0.009258226 -0.029041443 -0.056632496 -0.009603617 -0.048631176 0.014781072
0.01581276 -0.067782246 -0.055982858 -0.071316764 -0.044627625 -0.0053334497 -0.05244256 -0.06942303
0.06368062 0.031629153 -0.0013056899 0.0061677196 -0.026654352 -0.05350942 -0.027030393 -0.039492078
-0.044259828 -0.07516192 -0.027067805 0.032443475 0.033374537 -0.08701916 -0.012570874 -0.05849603
0.019449398 -0.057662103 0.061834484 0.025575064 -0.026572818 0.061954092 -0.084113315 0.016976671
-0.055630554 -0.041558187 0.021778528 -0.040293686 -0.06541217 -0.027240269 -0.041499436 0.0019632396
-0.018644977 0.050466698 -0.04041993 0.044886112 -0.055387653 0.03325878 -0.067234874 0.03574938
0.020025609 -0.07404563 0.0041615707 -0.07349519 -0.07612225 -0.081867926 -0.06477829 -0.04249514
-0.067680806 -0.061137464 -0.008305172 -0.019604862 0.03628505 -0.01726935 -0.011735969 -0.025930556
0.0066118944 0.018304663 -0.00020215736 -0.07377326 0.009429855 0.031942006 0.009832903 -0.028861377
0.0032943378 0.00025427045 -0.0038693887 -0.059403263 0.020881496 -0.05828161 -0.016404241 0.023967411
0.056224227 0.0062635406 0.025051348 0.01543553 0.012392756 0.016417373 0.030463198 -0.06562104
-0.04024184 -0.052333184 -0.04580822 0.0438032 0.020386124 -0.054177273 -0.018457139 0.044342324
-0.055427585 -0.06400802 0.033281785 0.042108674 0.020883005 -0.05628551 0.020821743 -0.017208675
-0.009809612 0.016996833 -0.0005531184 0.015884027 0.036115732 -0.056338515 -0.026958127 0.02412786
-0.030851768 0.006214094 -0.004043331 -0.023682559 -0.022432346 -0.030045055 -0.06252865 -0.08060144
0.01690894 -0.017116794 0.02587085 -0.015100369 -0.04647097 0.05297026 -0.011879209 -0.06339614
-0.053827424 -0.009091398 0.0055877124 -0.0751898 -0.06419736 0.041542497 0.014077652 -0.0035168012
0.018413039 0.01949259 0.012945671 -0.049308676 -0.064677656 -0.040225178 -0.042691365 0.0042086835
-0.0009534759 0.023526771 0.036610246 -0.052879076 -0.057902712 0.050374173 -0.006503674 -0.045500167
-0.046396147 0.016432825 0.035532515 -0.012088724 -0.060207866 -0.045773268 -0.0048634056 0.06257199
0.061301544 0.03104255 -0.002994338 0.04149043 -0.060732555 -0.041115973 0.036259025 0.004484648
0.01965374 -0.026924305 -0.056061503 0.036151662 -0.03382524 0.042348765 -0.029894175 -0.051181003
-0.063508905 0.0023681882 0.01156919 -0.03917169 -0.023936678 -0.023518886 -0.03937195 -0.09449719
0.04288964 -0.036515728 -0.03638936 0.025928102 -0.0869349 -0.024565773 0.031854596 -0.043265395
-0.01847747 0.016340159 0.010785471 0.023809003 0.04028842 -0.08460256 0.026898656 -0.029489715

model.9.bias f4 [218]
00000000: 7652 5dbd 6ae2 ed3c 7b45 b7bd d3ed 26bd
00000010: 0d1d 403e fac8 a93c f76a efbc 6125 93bc
00000020: 728b f33d 5bc4 df3c f7a4 a9bd d11f 19bd
00000030: d03f 87bd 3683 d03d a09d 2fbd 41fc 2dbd
00000040: a9ac 9ebd 642d 913d 385d 603d ce8a 81bd
00000050: 1582 0b3e 3a75 3d3e 2c9e b8bd a29b 883d
00000060: e726 e2ba 3816 053e 8a57 053e 2ad8 8fbc
00000070: 8c6a 2bbd 4799 1bbd 47b1 a6bd 31ba 983d
00000080: c589 2f3e 29fa ef3d 88e6 7c3d a1cf 94bd
00000090: 9eed 10bc 3e1a e33d b144 39bc 855d 193e
000000a0: fc98 ca3d 579b 153e 583c 223e e70a afbd
000000b0: c831 9a3d 20e5 9dbd 2297 7f3d 56c0 fb3d
000000c0: 534f 2dbc c5d3 cc3d da2e fe3d 48b7 59bd
000000d0: d6dd 143e a95a cd3d 2058 443e 254a b13c
000000e0: 6ced 883d 57e3 f63c 6e48 093d e7d5 c8bc
000000f0: aba5 be3c 6009 a9bd 3d66 993c 37c9 fd3d
00000100: c6b4 283e 8d5a 9c3c 7723 333e 1814 e93d
00000110: 34c2 893d 8729 59bc 8003 fe3d 5b84 1b3d
00000120: eb1b 5ebd d9b0 203e afd8 523e b4b2 eabc
00000130: 6318 fbbc e9f3 0b3e 6120 df3d 64a9 c53b
00000140: 1199 7c3d b7e0 c03d 8930 0e3e 802b 0cbd
00000150: 7d94 493d 1070 e23c 5e4e 363d 9834 afbd
00000160: fe67 163e 43f7 353e 77c1 58bd 52ad 81bd
00000170: b0c3 193e 0800 75bd 0e17 3ebd 212a 74bd
00000180: 3477 393c a600 5d3d 431f 473e a0ec 3fbd
00000190: 10bf 1b3e 610f b6ba a85e 133e 25b4 303e
000001a0: 69d7 dd3c 3121 f73d 8f81 c73c 8129 b4bd
000001b0: 3235 3c3e 7260 9fbd 5b9a ce3c b0a0 4b3d
000001c0: 6013 ffbc bde8 7ebd 543d 4f3c 76d3 9e3d
000001d0: 2f8c 2c3e c57c c43d 94e4 0f3e 303c b8bd
000001e0: 7b5a 26bd 5a82 65bd 7ee5 a53c b4cb 8d3c
000001f0: e8de a0bd 6b55 ff3d 3da9 2f3e 7ca5 fa3d
00000200: 1d03 01bc 45c6 993d 2d6f 573d 4b24 80bd
00000210: c218 c13d 3ec1 83bb 2903 573e 41d0 103d
00000220: f521 28bc 5989 253e f5dc c33d 57c9 c13b
00000230: 2f08 f03d 21d2 123e ed76 c73c c2de 08bd
00000240: e104 3abd f904 573c 921c b1bd abca 8c3c
00000250: bedb 01bc c3e7 9dbc b1d1 113e 6ba5 f3bc
00000260: b195 313e 3372 44bd 2a8d 9ebd c9ff 203e
00000270: bdeb 8e3c c9d3 3a3e 1772 803d 2450 d1bc
00000280: e75e 98bd 815e 90bd cbf5 133e c373 00bd
00000290: 0724 ba3c a574 a3bc ad01 a73d fe2d eb3d
000002a0: d120 2cbd a5c6 52bd 459f 8b3d 2d55 f93d
000002b0: e1a9 913d 1205 723d 7d83 073e aaca 1e3c
000002c0: d67c 9abd c8bd 72bd 7be1 9a3c d13f 123d
000002d0: 077a ddbd a746 0b3d 5d95 09bd ea04 323e
000002e0: 5711 b0bd aa47 a63c 0d38 fdbc 3c02 303e
000002f0: 7e7c ca3d 19f6 55bd ec51 7bbd 0217 1f3e
00000300: 2a8b f23d 3c16 ff3d c657 b93a f1e2 153e
00000310: b609 60bd 9a48 65bc 4fdc b2bd 8f2c 71bd
00000320: 27db 2f3e 33e0 e33c c090 2dbd dfdd 55bd
00000330: d67d 383e bd95 a2bd 59d8 7eba a057 833c
00000340: d019 d13d 50e4 ea3d 4d3b f43d b0dd c13c
00000350: b249 15bd 75d0 bbbc 613e 09bd d16b 2a3e
00000360: 7a6d 89bd 04c1 b83c
-0.05403372 0.029038627 -0.08948799 -0.04075415 0.18761082 0.020725716 -0.02922581 -0.01796216
0.118918315 0.02731531 -0.08283418 -0.037383858 -0.06603968 0.101812765 -0.042874932 -0.042476896
-0.07747776 0.07088736 0.0547764 -0.06325303 0.13623841 0.1850175 -0.09014544 0.066703096
-0.0017254025 0.12996757 0.13021675 -0.01755913 -0.041849658 -0.037987974 -0.08139282 0.07457388
0.17142399 0.11717636 0.06174329 -0.072661646 -0.008845715 0.1108899 -0.011307881 0.14977081
0.09892461 0.14610039 0.15843332 -0.08547001 0.07529026 -0.07709718 0.06239999 0.122925445
-0.010577994 0.10001329 0.1241128 -0.053153306 0.14537749 0.10027058 0.19174242 0.0216418
0.0668591 0.030137701 0.03351634 -0.02451606 0.023272356 -0.08253741 0.018725509 0.12391894
0.1647521 0.019086147 0.17493998 0.11380786 0.067264944 -0.01325453 0.12403011 0.03796802
-0.054225843 0.15692462 0.2059047 -0.028649665 -0.030651277 0.13667263 0.10894848 0.006032156
0.061669413 0.09417861 0.13885702 -0.034221172 0.049213875 0.027641326 0.04450833 -0.08554953
0.14688107 0.17770104 -0.052918877 -0.06331886 0.15016055 -0.059814483 -0.046408705 -0.05961049
0.011319924 0.053955697 0.19445519 -0.046856523 0.15209603 -0.0013890081 0.14391577 0.1725622
0.027080255 0.12066878 0.02435377 -0.08796979 0.18379667 -0.07782067 0.025220087 0.04971379
-0.031137168 -0.062233675 0.012648899 0.07755177 0.16850351 0.095941104 0.1405204 -0.08995855
-0.040613633 -0.056032516 0.020251032 0.017309047 -0.07855016 0.12467464 0.17154403 0.12238595
-0.007874277 0.0750852 0.05259626 -0.06256922 0.0942855 -0.004020839 0.20997299 0.035354856
-0.010262002 0.16165675 0.095636286 0.005913894 0.11720311 0.1433797 0.0243487 -0.033415563
-0.04541481 0.013123744 -0.086480275 0.017186483 -0.007925926 -0.019275552 0.14240147 -0.029741963
0.17342259 -0.04796047 -0.07741769 0.15722574 0.017446393 0.18244852 0.06271761 -0.02555091
-0.07439976 -0.07049275 0.14449231 -0.0313604 0.022722257 -0.019953081 0.081546165 0.11483382
-0.042023484 -0.051458973 0.068174876 0.12174449 0.0711248 0.059086867 0.13233753 0.009691874
-0.07543342 -0.05926302 0.018906346 0.03570539 -0.108142905 0.034002926 -0.03358971 0.17384687
-0.08597057 0.020297844 -0.030910516 0.17188352 0.09887026 -0.05223665 -0.061357424 0.1553612
0.1184295 0.12455413 0.0014140538 0.14637353 -0.05469676 -0.01399436 -0.08733427 -0.058880385
0.17173444 0.027816867 -0.042374372 -0.052213546 0.18016753 -0.079387166 -0.00097215694 0.016032994
0.102100015 0.114693284 0.11925373 0.02366528 -0.036447234 -0.022926548 -0.033506755 0.16642691
-0.06710334 0.022552975
