model_artifacts/regression_model.pth (torch, 103010 bytes, 5 tensors)

model.0.weight f4 [151, 10]
000000 c0 b8 bb 3e a8 c8 4f bd 5c 05 7e be 59 21 3a 3e
       0.3666439 -0.05072847 -0.24806732 0.18176784
000010 f9 f7 24 3e 18 c1 fe 3d ce 11 8d be 65 3c f2 3d
       0.16110219 0.124391735 -0.27552646 0.118279256
000020 51 10 9c 3c ca 70 18 3e 36 d6 a2 3e 6f 8a 99 bd
       0.019050749 0.14886776 0.31804055 -0.07497107
000030 74 99 f3 3c c6 45 15 be 82 df 8a be c4 6a 00 be
       0.029736258 -0.14577398 -0.27123648 -0.12540728
000040 da 2f 81 bd 27 89 36 be 00 f2 b8 bc cf b7 30 3d
       -0.06307955 -0.17825757 -0.022576332 0.043144044
000050 7d 78 9c be 3d 76 bb 3d 76 24 8e 3d 0e 02 27 be
       -0.30560675 0.091534115 0.06940548 -0.16309378
000060 3b 3a a2 bd ea f0 1a 3e 6b 2d 10 be 4e b5 04 bd
       -0.07921263 0.15130964 -0.14079826 -0.032399468
000070 bf 3e 5b be 80 88 2c bd 30 2c ff bd fe 42 ea bd
       -0.21410654 -0.042122364 -0.124596 -0.11438559
000080 d6 13 d5 3e 6d d8 6b be 7e 5e 1d bc 9d 43 79 bd
       0.41616696 -0.23031779 -0.009605048 -0.060855497
000090 e9 d3 91 be e0 c1 c7 3d 85 c4 67 be b2 fb da 3d
       -0.28481987 0.097537756 -0.2263356 0.10692538
0000a0 00 af 48 3e 28 6b c5 bd 84 56 62 3c 55 3c f9 bd
       0.19598007 -0.09639579 0.013814572 -0.121697105
0000b0 08 e0 85 be 4e da bd 3e b4 16 2a bd ca ae 67 3d
       -0.26147485 0.37080616 -0.041525558 0.056563176
0000c0 7c 89 82 3e 71 11 2b be 63 a4 10 3f 99 d1 56 be
       0.25495517 -0.16705872 0.56500834 -0.20978393
0000d0 ad 4e 5e 3d c0 15 94 be 91 b5 96 3e 78 dd ee bd
       0.05427425 -0.28922844 0.294354 -0.116633356
0000e0 1f 92 79 3d 20 f9 b5 3c 58 9d bb be eb 13 ef 3d
       0.060930368 0.022213519 -0.3664348 0.11673721
0000f0 84 b9 40 3e b9 56 0e 3e d5 48 c3 bc 57 ef 67 be
       0.18820769 0.1390027 -0.02383844 -0.22649895
000100 86 ae 8c 3e f0 10 ee bd d2 95 b6 3e 15 5e 09 3c
       0.274769 -0.11624324 0.3566118 0.008384247
000110 1f e1 43 3e a0 18 52 bc a1 ef 47 3e c3 83 8b 3e
       0.19128846 -0.012823254 0.19525005 0.27248964
000120 30 6f d3 3d 27 bf 18 bd 70 24 b6 bd c8 b5 9e 3d
       0.10323942 -0.037291672 -0.08893669 0.07749516
000130 10 5c 5f bd 28 76 f0 3d 0e bd 8a be ee f6 b7 be
       -0.054531157 0.117412865 -0.27097362 -0.3593058
000140 b3 55 18 3f 86 78 e5 be b0 30 11 be 2e 71 44 bd
       0.59505767 -0.44818515 -0.14178729 -0.0479595
000150 b6 87 a0 3d da 3f 13 be f8 26 09 3e cd 46 1d 3e
       0.07838385 -0.14379826 0.13393772 0.1535904
000160 f3 8c 22 3e 4b 57 7a be df dd 96 3e 67 55 c1 bd
       0.1587408 -0.24447362 0.2946615 -0.09440117
000170 1d 9a 81 3e b5 76 81 3d 3d 6e 21 3e a4 dc 81 be
       0.25312892 0.0632147 0.15764709 -0.25363648
000180 cf f3 0f 3e 19 24 17 3d be 74 fc bd dc fc 71 3d
       0.1405785 0.03689966 -0.12326954 0.059079036
000190 1d 27 b4 3e 59 23 4f be 17 5d 8e 3e 83 c4 87 3d
       0.3518609 -0.20228328 0.27805397 0.066292785
0001a0 e6 82 81 3e 33 a8 07 be 69 03 db bd d7 a9 0a 3e
       0.2529518 -0.13247757 -0.1069401 0.13541351
0001b0 e6 74 8c bd 9d 8f f9 3d 49 1b 7d 3e 89 db c6 3e
       -0.06858234 0.12185595 0.2471744 0.38839367
0001c0 fc 78 b8 3d 12 0c 0e 3e 32 1a 28 3e 4c 7b 5d 3e
       0.09007451 0.13871792 0.16416243 0.21629065
0001d0 d0 77 c0 bd 60 0f 6f 3b 50 c4 b8 3e 13 98 57 3e
       -0.093978524 0.003647767 0.36087275 0.21054105
0001e0 3a 1c 03 be 33 e7 98 be 02 05 f3 3d f9 22 e8 bb
       -0.12803736 -0.2986389 0.118661895 -0.007084247
0001f0 c6 43 20 be c1 19 a9 be 50 7a 0e 3e 8e 44 e6 bb
       -0.15650854 -0.3302746 0.13913846 -0.0070272153
000200 8a d0 85 bc 0c cc 70 3d f6 0a cd 3c f1 f9 57 bd
       -0.01633479 0.058788344 0.02502964 -0.052728597
000210 55 05 bd 3d 1a ba 2b be 43 74 ac 3e 82 38 bd be
       0.09229533 -0.16770211 0.3368245 -0.36957175
000220 2e d2 9b 3e 64 bc 0f 3c e7 ac a6 3e 59 d5 79 3d
       0.30433792 0.008772943 0.3255379 0.06099448
000230 fc a5 92 3d ae 4c 3f 3e 7e ca 4e be 57 97 9a 3e
       0.07160565 0.18681595 -0.20194432 0.30193588
000240 bf fe 12 bd a8 3d 67 3e b7 a0 f7 bc f3 09 23 be
       -0.035887476 0.22582114 -0.030228002 -0.15921764
000250 1f e7 23 3e b9 23 8f bd 64 3e b4 be 4c 4f c3 3e
       0.16006134 -0.069892354 -0.3520385 0.38146436
000260 9a dd a4 3e 76 d6 8d 3d 1e ab 2c 3c 67 b2 71 3e
       0.3220032 0.06925671 0.010538844 0.23603211
000270 85 23 52 be b8 b7 e6 bb 6f bf 9a 3e 5b f6 07 be
       -0.20521362 -0.007040944 0.30224177 -0.13277571
000280 c4 1b 56 be 5b b5 cc 3d 80 8f c5 3e e2 6c 7d 3e
       -0.20909029 0.09995528 0.38586044 0.24748567
000290 85 f6 1e be 0d ed 40 be e2 5b a3 be fc ad d1 3d
       -0.15523727 -0.18840428 -0.3190604 0.10238263
0002a0 41 08 06 3e 46 41 a7 be bb 48 83 bd 9b 31 f4 3d
       0.13089086 -0.32666987 -0.064103566 0.11923524
0002b0 46 15 af be 2c 9a ba bc 05 f8 6c bd 70 90 a3 be
       -0.34195918 -0.022778593 -0.057853717 -0.31946135
0002c0 99 80 a9 3e 17 95 2d 3e 9c a2 33 be 92 57 7b bd
       0.33105925 0.16951405 -0.175425 -0.06136281
0002d0 7b 90 a2 be 7a 62 54 be 94 2b 74 3e d2 fb 08 bd
       -0.31750855 -0.20740691 0.23844749 -0.03344328
0002e0 ab a9 68 be 38 4f 12 be 4b d5 01 3e 4f 35 ad bd
       -0.22720973 -0.14288032 0.12679021 -0.084574334
0002f0 7e 66 db bd 10 e6 ff 3d 9a da 07 be 7d cc 9f 3e
       -0.10712908 0.12495053 -0.13266984 0.312107
000300 b1 c3 a0 bc a9 15 1c 3e 11 0d 13 3e 34 44 6a be
       -0.019624563 0.15242638 0.14360453 -0.2287758
000310 d9 3d fa bd 32 aa 06 be 37 f3 94 be 4e 3f 34 bd
       -0.12218828 -0.13150862 -0.29091808 -0.044005685
000320 2b f1 b3 3c d8 be af 3e 2e 9b 43 bd e9 7f e5 bd
       0.021965584 0.3432529 -0.047755413 -0.112060376
000330 60 67 b1 3e 80 54 69 3d 81 f8 62 3d f5 4f a3 be
       0.3464918 0.05696535 0.055412773 -0.3189694
000340 87 51 de 3e d8 d4 d3 3d 74 e4 c9 3d c1 8d a1 be
       0.43421575 0.10343331 0.09858027 -0.31553462
000350 ff 35 23 3d f9 53 14 3d f7 22 ad bb b6 36 73 3e
       0.039846417 0.036212895 -0.005283709 0.2375134
000360 06 28 d4 be 27 63 44 3e 22 f6 a6 3d cf 8f bd 3d
       -0.41436785 0.19178449 0.08152415 0.09255945
000370 d8 f5 c8 be 2f f5 b4 3e db 0e 7a bd e6 60 77 3e
       -0.39250064 0.3534331 -0.061049324 0.24158058
000380 4f 56 be bd 52 40 90 3e 13 41 09 bf 40 10 94 bd
       -0.09293806 0.28174073 -0.5361492 -0.07229662
000390 41 ac e8 be dc d6 0c bc 02 e6 30 3c 0b 0f aa 3d
       -0.4544392 -0.008596148 0.010797026 0.083036505
0003a0 a7 81 53 be 3b 8d 3f 3e af b4 15 3e ae 1e af 3e
       -0.20654927 0.18706219 0.14619707 0.34203094
0003b0 44 84 92 bd 8a 5b 45 3e 0f 0f a1 3d e0 be fe 3d
       -0.07154134 0.192732 0.078642 0.1243875
0003c0 43 bb 49 be da cf 8a be 12 bc 97 3d db 7f 50 be
       -0.19700341 -0.27111703 0.074089184 -0.20361273
0003d0 cc 4d 3a 3e e9 8d 88 be 7f d8 92 bd 85 bf 79 bd
       0.1819374 -0.2667077 -0.071701996 -0.060973663
0003e0 35 fd 23 3d 05 c1 05 3d 23 98 e6 bd 36 e3 b3 3d
       0.0400364 0.03265478 -0.112594865 0.087835714
0003f0 ab 34 1b 3d 97 08 92 bd ad f2 dd 3d 68 93 c6 be
       0.037892025 -0.07130545 0.10837302 -0.38784337

model.0.bias f4 [151]
000000 4b 6e 04 3f e5 b7 17 3f 79 23 0f 3f 97 39 c6 3e
       0.51730794 0.59264976 0.559135 0.38715813
000010 15 c4 aa bd 0b d7 01 3d ec aa 0a be fc 1e 82 be
       -0.08338181 0.03169922 -0.13541764 -0.25414264
000020 2b e9 ae 3d 7e 65 59 3e 29 4d 33 3e 3d 5d a0 3e
       0.08540567 0.21230122 0.17509903 0.31321135
000030 26 bd f3 3e e7 11 c0 3d af c6 f4 3e 42 b0 ab 3e
       0.47605246 0.093784146 0.47807834 0.33532912
000040 b3 5e cf 3e bc 76 ad 3d e1 0b 4d 3e 6d d6 fa 3e
       0.40501937 0.084699124 0.20024063 0.4899172
000050 92 5a 95 3e e8 06 96 bc 09 ba 64 3e 60 47 0f 3f
       0.29170662 -0.01831384 0.22336592 0.55968285
000060 29 72 01 3f 0f 28 11 3f 59 80 ab bd ae 81 d8 3e
       0.5056482 0.5670175 -0.0837409 0.42286438
000070 4d a2 a8 bd f8 58 c9 3d 5d 6f 10 3f 03 f4 d3 3e
       -0.082340814 0.098314226 0.56419927 0.41397104
000080 6d 0b 12 3f ac 0e d2 bd 1b 38 21 3e 6f 6c 0c 3f
       0.57048684 -0.10256705 0.15744059 0.54852957
000090 92 7b bf 3e cc 8e 3a 3e d2 32 c0 bd 20 9d 32 be
       0.37398964 0.18218535 -0.09384693 -0.17442751
0000a0 47 dc 83 3e 7d ae a0 3e 33 94 5f be 72 d2 9e bd
       0.25753996 0.31383124 -0.21833877 -0.07754983
0000b0 e9 20 f8 bd 4c eb c6 3d a2 a3 da 3e 80 41 92 bc
       -0.12115652 0.09712848 0.42702967 -0.017853498
0000c0 92 37 c3 3e ba 03 0d 3f 16 97 db 3d 63 13 7e 3d
       0.38128334 0.5508381 0.10722177 0.062030207
0000d0 09 37 fb 3e 6a d8 8b 3e b8 dd 59 3e d5 df 17 be
       0.49065426 0.27313548 0.21275985 -0.14831479
0000e0 cc 24 8c be 9b 8e a7 bc 28 15 0c be 9c a9 64 3e
       -0.27371824 -0.020453742 -0.13679945 0.22330326
0000f0 82 af 8d be 5d bc 86 3e fc 2b dd 3c bd 58 a0 be
       -0.27672964 0.26315585 0.026998512 -0.31317702
000100 78 99 2a bd 52 e2 05 3f 76 0f a5 be d8 a1 02 3f
       -0.041650265 0.5229846 -0.32238358 0.51028204
000110 f0 fe b1 3e eb 88 ba 3e dc 60 c1 3c 3a e4 e2 bd
       0.34764814 0.36432585 0.023605756 -0.11078687
000120 92 d7 16 3f cb dd 43 3e ea 79 a7 3e 32 a4 ef 3e
       0.58922684 0.19127576 0.327102 0.4680496
000130 38 7c 47 3e 5e 0f 24 3e 45 a6 14 3f 49 76 a0 be
       0.1948098 0.16021487 0.5806621 -0.31340244
000140 a7 44 4b 3d bf 2c 01 3f 01 df b7 bc d2 62 31 3d
       0.04962602 0.504589 -0.022445204 0.043307133
000150 aa d1 13 3f d4 6b 55 3c d0 e3 6c be dc c5 76 be
       0.57741797 0.0130261965 -0.23133779 -0.24098915
000160 02 e0 f2 3e 91 25 85 be 98 30 84 be 07 b4 9a 3d
       0.4743653 -0.26005223 -0.25818324 0.07553869
000170 ae 55 2a bd e7 66 e0 3d d0 5f 95 bc 35 84 a2 be
       -0.041585617 0.10957127 -0.018234164 -0.3174149
000180 9c cd de 3c 00 40 3d 3e c3 8e 80 3e fd 18 a3 3d
       0.027197652 0.18481445 0.2510892 0.079637505
000190 9e f2 0b 3f aa 6c dd 3e c9 59 23 3f 73 44 8c 3e
       0.5466708 0.43246967 0.63808876 0.27395973
0001a0 fc 7b 74 3e ad 90 c9 3e 0d 28 a4 3e d3 b9 90 3e
       0.23875421 0.3936819 0.32061806 0.28266773
0001b0 07 e4 06 3f f7 6b 13 3f 7e 7d 10 3f 45 63 72 3d
       0.5269169 0.57586616 0.56441486 0.059176702
0001c0 7d 01 aa be ab e2 f1 3e 40 25 3f 3d cc 3d 2d 3e
       -0.3320426 0.47243246 0.046666384 0.16918105
0001d0 43 47 31 be 8e 91 0b 3f 3c 59 35 be c2 14 48 be
       -0.1731234 0.54518974 -0.17709821 -0.19539168
0001e0 31 19 54 3e f0 07 5a 3e bf 88 1c be 17 65 5c be
       0.20712735 0.2129209 -0.1528654 -0.21522938
0001f0 a4 bf d2 3d 6e 8c ee 3e 94 c2 f6 3d 25 a3 ba 3d
       0.10290459 0.46591514 0.120488316 0.091131486
000200 c2 0c 05 3f d3 02 13 3f 9e f4 9c be b5 6b 0b 3f
       0.5197259 0.57426184 -0.30655378 0.5446122
000210 78 58 5e 3d 55 84 a4 3e 52 21 85 be b9 96 7e 3d
       0.05428359 0.3213221 -0.26001984 0.06215546
000220 e1 0f 63 bd 6b d8 9f 3e 98 89 4e be 06 b2 6d be
       -0.055435065 0.312198 -0.20169675 -0.23212442
000230 55 35 c7 bd 34 30 47 3e ce 88 7a 3e 58 03 4c 3d
       -0.09726969 0.19451982 0.2446625 0.049807876
000240 97 41 a2 be c5 24 7c be fd f8 b6 3e 03 6d 0d 3f
       -0.31690666 -0.24623401 0.35736838 0.55244464
000250 8d 59 8a 3d e8 f6 89 3e 2c 7a f4 3e
       0.06755362 0.26946187 0.4774946

model.3.weight f4 [151, 151]
000000 b4 a6 d0 3d 88 34 01 bd ea 8e 57 3e d3 f7 6b bc
       0.10188046 -0.03154424 0.21050611 -0.014402348
000010 f0 d1 53 bb 8d 27 a3 3c f4 63 e3 3d 91 01 2d bc
       -0.0032321177 0.01991632 0.11103049 -0.0105594555
000020 25 ec 50 3d 23 11 03 3e 42 3a c9 3d 0b 87 51 3e
       0.051006455 0.12799506 0.09825565 0.20461671
000030 79 25 82 3e b5 f7 25 3e 39 8c 63 3d 04 f2 35 3e
       0.25419214 0.16207774 0.05555365 0.17768103
000040 d4 8d 07 3e 9e 30 ac bc e8 86 e9 3c 0e c8 e1 3d
       0.13237697 -0.021019276 0.028506711 0.110244855
000050 f0 7a 20 3e 03 4c 65 3d 01 d1 6b 3e f3 0c 19 3e
       0.15671897 0.055980694 0.23028947 0.14946346
000060 1f e0 6e 3d ff 34 9e 3d c6 63 d7 bc 2b 14 03 3e
       0.058319207 0.07724952 -0.026292693 0.12800662
000070 36 f9 9a bd ab 1b c6 3d 7c dd 80 3e d1 4a f7 3b
       -0.075670645 0.09673246 0.2516898 0.0075467606
000080 1c 8c ca 3c e8 7c 96 bc b0 a9 df bd 7b 15 c3 3d
       0.024725012 -0.018370107 -0.10921037 0.095255814
000090 36 52 51 3d f9 8a 2a 3d 68 a0 21 3a 6c 12 c0 bd
       0.051103793 0.04163644 0.0006165565 -0.09378514
0000a0 b4 fc 2d bc 7a a4 e3 3c 99 55 3f be b0 58 91 bd
       -0.010619331 0.02778839 -0.18684997 -0.07096994
0000b0 d1 85 80 3d a4 d5 28 3e 28 75 10 3e 1b b0 9d 3d
       0.062755235 0.16487747 0.14107192 0.07699605
0000c0 8f f7 76 3d e1 c0 4e 3d be 12 02 3e 70 62 03 3d
       0.060294684 0.050476912 0.12702462 0.0320763
0000d0 3c 57 8b 3d 6b ee 41 3e e0 fd 8f b7 f9 6d a6 bd
       0.06803748 0.18938605 -1.7165148e-05 -0.08126444
0000e0 a6 74 f5 3d 4b 91 4a 3d 74 eb c8 3c a7 cb aa 3d
       0.119851395 0.04945497 0.024526335 0.08339625
0000f0 67 1c f1 3d b4 6d b9 3b 1f 1a 5e bd ad 7a 23 bd
       0.117729954 0.0056588296 -0.05422413 -0.039911915
000100 07 60 d6 3d 57 43 aa 3d 42 f3 8f 3d 1b 49 fb 3d
       0.104675345 0.08313625 0.070288196 0.12269803
000110 4f 79 42 3e 3b 28 8f 3d ea de ed 3d 62 e0 78 bd
       0.18991588 0.06990095 0.11614783 -0.060760863
000120 7d fc d5 3d 68 76 ff 3d 7d 9b cc 3d 01 2b a4 3d
       0.10448549 0.12473756 0.099905945 0.08016015
000130 50 e3 df 3c 45 40 82 3d f9 4f 08 3e 5e 47 62 3d
       0.02733007 0.06359915 0.13311757 0.055243842
000140 38 89 b3 3c fc c8 b1 3d 7b c1 fe 3c ec e0 75 3e
       0.021916017 0.08680913 0.031098118 0.24011582
000150 82 87 7e 3e fd b0 c8 3d 4d f7 99 3c 62 0f f0 bd
       0.2485638 0.09799383 0.01879468 -0.11721684
000160 08 a9 c8 3d 63 81 27 3e af a1 13 be bc 5c 68 3c
       0.09797865 0.16357951 -0.14417146 0.014182266
000170 de bd 0d bc 11 48 29 3e 71 b9 23 3e fb 47 44 3d
       -0.008651225 0.16531397 0.15988709 0.04792021
000180 41 4c 31 3e 57 eb 63 3d bf 3b 38 3e bc 36 33 3e
       0.17314245 0.05564436 0.17991541 0.17501348
000190 cc 23 71 3e 6e 3f db 39 80 aa 11 3e 38 da 11 3d
       0.23548812 0.00041818194 0.14225197 0.0356085
0001a0 f6 07 30 3e 08 31 e1 3d ab 7b d2 3b 2d 4c fe 3d
       0.17190537 0.1099568 0.006423434 0.12416873
0001b0 8d 73 c4 3d 23 3a 5a 3e 85 a5 44 3d d6 ea 5b 3d
       0.09592352 0.2131124 0.048009414 0.053690754
0001c0 48 75 1a 3e 71 d1 ab 3d 15 5a 0d 3e 3d 0c 47 3d
       0.15083802 0.08389557 0.13803895 0.048595656
0001d0 bb 94 a2 3d 84 95 28 3e 6d 37 0f 3e c7 5f bc bc
       0.07938524 0.16463286 0.13985987 -0.022994889
0001e0 41 6c d6 bc e8 63 29 bb 96 75 f9 3d b1 46 40 be
       -0.026174666 -0.0025846902 0.12180631 -0.18776967
0001f0 80 ad e1 3d 30 46 a9 3d 1c 31 a5 3d d9 b7 92 3c
       0.110194206 0.0826534 0.080660075 0.017909931
000200 9d cb 67 3d 54 c9 f5 3d f7 4b 89 3d 79 2f 9a 3d
       0.056590665 0.12001291 0.06703942 0.07528586
000210 dd 6c af 3c 01 7f 68 3c 23 1f d5 bc f8 ed 37 3d
       0.021414215 0.014190436 -0.026015824 0.04490468
000220 9b 8f 76 bd 4d fe 2a 3d 5a ba f6 3d 7d 74 1d 3d
       -0.060195547 0.041746426 0.120472625 0.03844117
000230 7a 01 86 3b da 00 f3 3d 25 b4 1b 3e 93 5e a6 3d
       0.0040895315 0.11865397 0.15205438 0.08123507
000240 f5 2d 76 be a9 ce 3f 3e b2 8d c5 3c 5b fc 2f 3e
       -0.24040969 0.18731178 0.024115417 0.1718611
000250 43 19 1c 3d d3 49 3f bc e9 83 56 3e 74 59 bd 3d
       0.03811003 -0.011675316 0.20948757 0.092455775
000260 55 5f 8e 3d 82 ee 47 3e e6 1f 02 3e 11 b1 8e 3d
       0.06951777 0.19524577 0.12707481 0.069673665
000270 ed b6 98 3c ae a7 55 3d 00 b1 bd 3d 86 62 5a 3d
       0.018641913 0.052161865 0.09262276 0.053316616
000280 a2 ee 06 3e 0a b0 05 3e 75 0e 0a 3e a1 a8 04 3d
       0.13176969 0.13055435 0.13482077 0.03238738
000290 b2 6b 47 3c 11 79 30 3e be 20 84 3d 23 16 10 3e
       0.012171673 0.17233683 0.064515576 0.14070944
0002a0 50 ca b2 3d f1 fc e3 3b 4e c7 81 3d ff 99 8b 3d
       0.08729994 0.006957643 0.063368425 0.06816482
0002b0 80 8d e8 3c 2e 82 75 3e f1 a9 13 3e 51 0d 94 3d
       0.028387785 0.23975441 0.14420296 0.072291024
0002c0 9a 4e ba 3c 4a 13 0c bd 83 dd a7 3d 4e 8f d7 3d
       0.022742558 -0.034198083 0.08196547 0.1052538
0002d0 17 ef 2b 3d 90 6d 48 3e 05 09 83 3d 04 1d 0c 3e
       0.04197606 0.19573045 0.06398205 0.13682944
0002e0 fd 64 28 bb 41 76 85 bd 75 fe 4a 3c 69 9f e3 3c
       -0.002569496 -0.06516696 0.012389769 0.027785974
0002f0 06 e6 0e 3d d3 82 ba 3b 0d b2 54 bd 89 75 ca 3d
       0.034887336 0.005691865 -0.051927615 0.09885699
000300 3b f4 b2 3d 81 bc 8c bc 05 67 c6 3c e6 6e 1b 3d
       0.087379895 -0.01717973 0.024219045 0.037947558
000310 3a 36 4d 3d 9f 54 24 3e 16 51 ff bc 0c 30 f6 3d
       0.050100543 0.16047905 -0.031166594 0.12020883
000320 53 39 35 3e 77 60 19 bd 70 62 bc 3d ff db c4 3d
       0.17697649 -0.03744551 0.09198463 0.096122734
000330 c3 04 14 3e d3 3c 13 3b 78 21 31 bb 47 45 c5 3d
       0.14454941 0.0022466674 -0.0027028006 0.09632354
000340 38 5f ec 3d ba 9d d2 3d 8e ed c9 ba bd ad d6 3d
       0.11541599 0.1028399 -0.001540588 0.10482357
000350 12 b7 ec 3d 7c fd 26 bd bf 39 98 3d 1f bd 76 3d
       0.115583554 -0.040769085 0.07432889 0.060238954
000360 51 87 99 3d 1b 05 ad 3d c2 6e 95 3d ed 23 95 3d
       0.07496513 0.084482394 0.07296516 0.07282243
000370 2e 26 00 3e ca 3d 22 3e 28 d8 4f bd d8 4b 04 3e
       0.12514564 0.15843883 -0.050743252 0.12919557
000380 8c 86 d8 3d 9d 0b 6e 3d 4f b7 ba 3d 9d 64 55 3c
       0.10572538 0.058116544 0.091169946 0.013024476
000390 2c 52 33 3e 33 56 cb 3d 08 47 f7 3d a7 a1 8b 3d
       0.17511815 0.099285506 0.12074095 0.06817942
0003a0 27 e7 bb 3d 1f 93 7a 3d 62 90 db 3d eb 3b 08 3e
       0.09174948 0.06117546 0.10720898 0.13304107
0003b0 d1 d7 98 3d e7 e6 ad 3d af b1 50 be 93 cd c8 3d
       0.07463039 0.08491307 -0.20380281 0.09804835
0003c0 97 bb 52 3e b8 b2 9a bd db 23 06 3e e4 f1 33 bc
       0.20579372 -0.07553619 0.13099615 -0.010982964
0003d0 e3 d9 19 3e 7b 0b 0b 3d 98 a6 9e bd 48 c9 ab 3d
       0.15024523 0.033946496 -0.07746619 0.08388001
0003e0 14 62 1b 3e db e7 a7 3d 1a 8d 91 3d 5a 84 8c 3d
       0.15174133 0.0819852 0.07106991 0.068611816
0003f0 a1 e2 92 3c ef b1 5f 3d 3b 82 f1 3d f4 3f 44 3e
       0.01793033 0.05461305 0.117924176 0.19165021

model.3.bias f4 [151]
000000 38 3e 8b 3e 3f 58 8f 3e 69 c7 d6 3e f6 c4 06 be
       0.27195907 0.27997014 0.41949013 -0.13161072
000010 d1 52 05 bc 6b c4 a5 bd 43 df e4 3e 68 9e 84 3e
       -0.008137421 -0.080941044 0.44701585 0.25902104
000020 4d fa 4e 3e 28 fc a7 3e 18 3e 8b 3e 77 aa 29 bd
       0.2021267 0.32809567 0.2719581 -0.041422334
000030 01 6a 22 bc f3 69 9e 3e b6 5d 9f bd bc 00 6a 3e
       -0.009912969 0.30940208 -0.07781546 0.22851843
000040 cb 79 02 be a0 13 a8 3e 2f 2f b8 bb 89 e4 73 bc
       -0.12741773 0.32827473 -0.005620859 -0.01488603
000050 ff 71 70 3e 9c 04 a0 bd 41 7e 2a bd d3 4d f0 3e
       0.23480986 -0.07813379 -0.04162431 0.46934375
000060 a1 c0 4a bd f3 ba 7c 3e 33 51 90 3e 1b 4d 8d bc
       -0.04950011 0.2468069 0.2818695 -0.01724868
000070 66 de 6c bd e7 85 9f bd 88 f7 94 3e 12 bb ac 3e
       -0.057829283 -0.07789212 0.290951 0.33736473
000080 0c c7 79 3e 06 d1 5a 3e 41 0a bc 3e 4c 4c 36 3c
       0.24392337 0.21368799 0.36726573 0.011126589
000090 e9 58 2b bc 8b 08 d3 bd f7 ec c9 bd 22 86 8a 3e
       -0.01045821 -0.10304364 -0.098596506 0.2705546
0000a0 41 4f ef bd d6 25 9a 3e e7 9c c5 3e dd af 11 bd
       -0.11685038 0.30106992 0.3859627 -0.035568107
0000b0 7d 32 aa bd 61 14 ae bd 99 f3 98 3e 75 b1 81 3e
       -0.08310411 -0.08499981 0.2987335 0.253307
0000c0 fd 89 83 bd 5d 55 9f 3e 6d c2 b0 3e 4d 71 8d 3e
       -0.064228036 0.31119815 0.34523335 0.27625504
0000d0 6e e3 be bd 37 61 d0 3e f3 58 77 3e 84 a8 2c bd
       -0.093207225 0.4069917 0.24155025 -0.042152897
0000e0 51 8f 64 3e f8 24 36 bd 1e 80 d0 bd cf 08 96 bd
       0.22320296 -0.04446885 -0.101806864 -0.07325899
0000f0 35 3a 5b bd 25 50 4e bd 3b 57 83 3e 79 39 b7 bd
       -0.053522307 -0.0503694 0.2565249 -0.08946509
000100 01 d1 b6 3e 4e 03 b2 3e be 42 06 3c e2 fa 23 bd
       0.35706332 0.34768146 0.0081946235 -0.040034182
000110 c8 27 eb 3c dd 63 a5 3e cc 52 d0 bd d7 79 ae bd
       0.028705493 0.32302752 -0.10172042 -0.08519333
000120 38 d4 8f bd a7 9d ee bd 34 0d b2 bd a2 1a 51 bd
       -0.070228994 -0.116511635 -0.086939245 -0.05105079
000130 14 5b ca 3e 5e 6e 9f 3e d2 42 35 3b c9 3e f8 bd
       0.39522612 0.3113889 0.0027658236 -0.1212135
000140 ce ff b5 bd cb 90 83 bd 34 3a 0b 3d 03 68 a9 3e
       -0.088866815 -0.064241014 0.033991054 0.33087167
000150 0c 13 6f bd 9f 2f b7 3e 9c fe 8c bc 93 96 82 3e
       -0.058367774 0.3577852 -0.017211251 0.25505504
000160 93 2d 82 3e 5e 5a e6 bd 6f a8 8b 3c 15 f4 a8 3e
       0.25425395 -0.11247705 0.017048089 0.3299872
000170 22 91 c9 bd 26 29 81 bb 0c af 08 bc fe 38 6e 3e
       -0.09842135 -0.003941673 -0.008342516 0.23263928
000180 67 42 6e 3e 91 33 86 bd 79 61 62 3a 27 11 c7 3c
       0.23267518 -0.06552804 0.00086357404 0.024300171
000190 2b 95 02 3c 76 ea a2 3c 22 0f c4 3e 8d 8e ae 3e
       0.007970135 0.01988719 0.38292795 0.34093133
0001a0 ff a0 d5 bd cb e1 d2 bd 2b ad d8 bd 0e 00 c9 3e
       -0.10431098 -0.10296973 -0.10579904 0.39257854
0001b0 96 cf f9 bd dc 1e 00 be 89 10 09 bc 7a bb 95 bd
       -0.12197797 -0.12511772 -0.008365759 -0.07311149
0001c0 20 f6 c7 3e 3d 12 90 bd 55 40 c3 3e 0a 65 3f bd
       0.39054966 -0.07034729 0.3813502 -0.046727218
0001d0 2a b4 78 3e 25 6d a7 3e 04 aa 55 bd 7f a6 4f bd
       0.24287477 0.32700458 -0.052164093 -0.050695892
0001e0 dd cb 8b 3e d4 8a a3 3e e2 37 77 bd 40 4a 45 bd
       0.27303973 0.31941855 -0.06035603 -0.048166513
0001f0 0e 98 8c 3e 40 e2 c2 bc 25 4c b6 bd 22 fd a2 3e
       0.2745976 -0.023789525 -0.08901242 0.3183375
000200 59 e0 b4 3e 7b 38 a6 3e 4b 09 d7 3e f4 b4 c8 bd
       0.35327414 0.32464966 0.41999277 -0.09800139
000210 5c 18 b3 bd 67 a4 82 bd d7 b0 02 3d 10 77 db 3e
       -0.087448806 -0.063790135 0.03190693 0.42864275
000220 fd fd 3e bc 9e 3e 84 3e 38 54 70 3e 70 85 59 3e
       -0.011657235 0.25829023 0.23469627 0.21242309
000230 09 7d c6 bd db b3 88 3e bb b6 b4 3e 06 01 a2 3e
       -0.09691817 0.2669972 0.35295662 0.31641406
000240 1e e0 98 3e 38 af 94 3e 61 ab b2 3e d6 df a7 3e
       0.29858488 0.2903993 0.34896377 0.3278796
000250 3b 77 85 bc 20 e2 a6 3e 8a 39 da bd
       -0.016292205 0.32594395 -0.10655506

model.6.weight f4 [1, 151]
000000 a4 3c f9 3d 4e e4 11 3e f1 30 fb 3d 35 90 57 bc
       0.121697694 0.14247248 0.12265194 -0.01315694
000010 3e 16 8b 3c 81 d4 af bc a9 28 e2 3d 36 9e e5 3d
       0.01697838 -0.021463634 0.110429116 0.11211817
000020 7b bc 0a 3e b7 9a ae 3d 99 9d 19 3e a1 6e 86 ba
       0.13548462 0.08525603 0.15001525 -0.0010256359
000030 78 04 84 3c 49 f6 02 3e a3 11 08 3c a1 fa 04 3e
       0.016115412 0.12789263 0.008304986 0.12986232
000040 27 32 0b 3c 73 fa f5 3d b5 34 b8 bb 56 d5 21 3d
       0.008495844 0.1201066 -0.0056215175 0.039510094
000050 cd fa 16 3e f3 d9 74 3c 30 66 53 3c 2c 43 09 3e
       0.1474411 0.014944541 0.012902781 0.1340453
000060 c2 8c c8 3c 86 24 03 3e 0c 64 de 3d a4 66 ee 3c
       0.024481181 0.12806901 0.10858926 0.029101677
000070 c3 be 48 bc 97 bf 02 3c 9d 76 14 3e 6d c2 0e 3e
       -0.012252512 0.007980249 0.14498372 0.13941355
000080 a7 33 34 3e 53 b1 fb 3d 00 15 3a 3e f7 4d 38 3b
       0.17597829 0.12289681 0.18172073 0.0028122643
000090 73 09 d7 bc 64 1f 13 bd a5 20 3f 3c 00 14 0d 3e
       -0.026249623 -0.03591861 0.011665498 0.1377716
0000a0 b1 a7 15 3d 3c 7b e9 3d a4 31 09 3e ba a7 24 bd
       0.036536876 0.11400458 0.13397843 -0.04019902
0000b0 1d 7e 31 bd 0e da 75 bc a9 cf 10 3e d3 2f e8 3d
       -0.04333316 -0.015005602 0.14141716 0.11337247
0000c0 98 aa 21 3d fa bb e9 3d 2f fc fc 3d 47 4c 24 3e
       0.03946933 0.11412807 0.12352788 0.16044722
0000d0 9e a4 fe 3b 73 f6 10 3e db 59 2a 3e 8f 37 ad 3c
       0.0077710887 0.14156513 0.1663584 0.021144656
0000e0 db 41 00 3e 3c 2a ac bc cf b2 87 bc a0 c0 94 bc
       0.12525122 -0.021016233 -0.016564755 -0.018158257
0000f0 87 b9 9d 39 3b 10 7b 3a b3 7d 1e 3e 46 47 93 bc
       0.00030083602 0.00095773087 0.15477638 -0.017978322
000100 fc 49 03 3e 02 be 00 3e f6 de 18 bc 6a 2b ec bc
       0.12821192 0.12572482 -0.009330502 -0.028829295
000110 8d dd f2 bc 70 46 f1 3d 14 d8 36 bc 81 d9 92 bc
       -0.02964666 0.11781013 -0.0111599155 -0.01792598
000120 75 97 65 3a 75 87 69 3c 50 97 23 bd 1b 3c 53 3b
       0.00087582256 0.014253487 -0.039939225 0.003223187
000130 ac 4a 2c 3e 81 a4 10 3e 63 95 75 3c 5f a0 20 3d
       0.1682536 0.14125253 0.01498923 0.03921544
000140 26 a6 eb 3c 20 20 d0 3c 11 0a 05 3c 8c fd 00 3e
       0.02876575 0.025405943 0.008120076 0.1259672
000150 a3 0f 65 3c 91 81 2c 3e c3 6c 70 3c e5 2a 15 3e
       0.013980779 0.168463 0.014674368 0.14567144
000160 a8 f3 15 3e 75 bf 3d 3c 2b 14 04 bd 90 87 1c 3e
       0.14643729 0.011581291 -0.032245796 0.15286088
000170 f7 08 a4 3b fe a6 87 bb f0 2d e3 3c d5 7b 0b 3e
       0.0050059515 -0.00413978 0.027731866 0.13621457
000180 b0 91 f1 3d 73 89 60 bc 80 b2 c2 bc 53 30 55 3b
       0.11795366 -0.013704645 -0.023766756 0.0032530024
000190 8a cf ab 3c 4a a4 af bc 69 1f e5 3d df ed 0c 3e
       0.020972986 -0.021440644 0.11187632 0.13762616
0001a0 aa fb 11 bd 4d 76 c9 3c e5 88 9f bc f0 7c e8 3d
       -0.035640396 0.024592543 -0.019474456 0.11351955
0001b0 b2 6c 71 3c 10 bc 62 3b ea 4a d0 bc 54 f7 14 3d
       0.014735388 0.0034596957 -0.025426347 0.036368683
0001c0 52 a8 e6 3d d9 c0 02 3d b6 00 cc 3d e5 86 a5 3c
       0.11262573 0.031922195 0.09961073 0.020205924
0001d0 ab 95 0b 3e 07 f5 2a 3e 41 fc 2c bd b3 bc e0 3b
       0.13631313 0.16695033 -0.042232756 0.006858432
0001e0 cf c1 03 3e 3f ef 17 3e 21 b8 68 3b 39 1d b3 bb
       0.12866901 0.14837359 0.003551014 -0.00546613
0001f0 bb 17 e1 3d b2 e2 55 3c 5f 96 1d bd c4 2e fe 3d
       0.10990854 0.013054537 -0.038473483 0.124112636
000200 62 78 27 3e 46 88 13 3e da 18 07 3e b5 bb 23 bc
       0.16354516 0.14407453 0.13193074 -0.009993483
000210 99 03 bc 3c 2d 47 27 bd 3d 79 45 bc a0 19 0d 3e
       0.022950934 -0.040839363 -0.012052831 0.13779306
000220 f2 53 08 3c a9 88 d5 3d e4 36 19 3e ac c2 03 3e
       0.008320795 0.104264565 0.14962345 0.1286723
000230 61 dd a8 3c e5 49 22 3e a0 05 17 3e 5c 19 23 3e
       0.020613374 0.15848501 0.1474824 0.15927643
000240 7d 30 05 3e 49 9a 29 3e d9 12 1c 3e cd e6 1c 3e
       0.13006778 0.16562761 0.15241565 0.15322419
000250 be bb 09 3d f3 48 f6 3d f9 9e ee bc
       0.03362631 0.12025633 -0.029128538
