model_artifacts/regression_model.pth (torch, 390364 bytes, 9 tensors)

model.0.weight f4 [177, 10]
00000000: 4f48 f83d 37cb b9be a643 b63b 00b4 a0be
00000010: 0311 f23d fa17 e83d f57f 383e 3bef f63d
00000020: a4a5 a8bc e771 76be 238c a03e 8e24 23be
00000030: ff59 893e 7ed6 15bc 2f2f dabd 8eba 09be
00000040: 58d7 543e 45ec a83d 2262 2bbe bd0b 953e
00000050: 2806 66bd 2e7a b8bd 365b 4abe 5100 72bd
00000060: 8eb0 653e 7e40 353d 1916 ba3c f655 81bc
00000070: b0ae e83d ee12 8e3e 690f 97bd 4904 773e
00000080: aab2 e33e 9a03 483e 053b f53d a0d0 1ebe
00000090: 0a3b 93be a21e 43be 3184 c0be 4e32 c93d
000000a0: 7e15 f6bc 48f8 eb3d ed98 103c 4b3f 3a3e
000000b0: 0ed7 643e 4aa2 0b3e 6957 683e 8ed9 a5bd
000000c0: b8e3 9ebe a20c 83be 13fb 2e3b 82ba 7b3e
000000d0: 2585 cbbe e1d4 96be 6847 143e 8021 8b3e
000000e0: 5466 783e bb0c 13bc 269b 9a3e c1f4 32be
000000f0: 6bf7 913e e4fa 31bc aa63 8abe 6830 113e
00000100: 18b7 31be b7dc cfbd bdd5 f23d b704 843d
00000110: 279c a13e 95f3 fb3d b5c7 3c3b d169 793e
00000120: b2cc 71bd 0f75 21bd 6046 c63d 6a83 8ebc
00000130: 75ff 64bd 1501 883d 4f40 9abe c9b9 6ebe
00000140: 5e2c 04be cdba 983e fe53 31bc c564 143e
00000150: 8a10 00bd 7fcf 243e aca7 3e3e 5433 433e
00000160: eb14 81be 08b2 233e 93b8 363b 9dc8 333e
00000170: 9ce5 7abe 762b 863e 969f 0d3e 3fc6 1f3e
00000180: 0849 7e3e b8ed 84be a86e 62bd 7a79 6b3e
00000190: b579 6f3d d631 113e 1d4a 833e 6110 3f3e
000001a0: 7ab4 b13e 086f cebd 90a8 a23d 619b 753e
000001b0: c34c 0abd 1f03 6cbd 7868 89bd 2c1a 293d
000001c0: d887 4cbe 0ee3 7d3d 1839 613e 1406 75be
000001d0: 3be6 61be 56d6 1ebe cbdb 8c3e 86e8 3dbe
000001e0: 187b 213e a5e9 8a3e b47a 783e 640c 6fbb
000001f0: ed36 8e3e 2bf8 6d3e 0d7d 3bbe 741b f3bd
00000200: 7150 0e3e d2c4 b8bd 9c8c 00bd eb95 973e
00000210: 0255 1b3e c1c2 bebd e183 99bc c9cc 203e
00000220: fecb 18be 675e 5cbe a311 943e 8360 4ebe
00000230: f565 4fbe 45cf 6b3e 4b1f 07be c8ab 5e3e
00000240: 777c cabd aad0 b5bd 0738 e5bd 4240 f63a
00000250: 9243 ce3d 5bc5 973e 5e1c 99be 0557 ad3e
00000260: c8b9 a13e e067 8a3e a95e 05be c106 a2bd
00000270: 606b 91bd be13 683e 78f0 e7bd 8991 03be
00000280: 697f 973e efd1 5a3a ffc2 0c3e e4e3 a43d
00000290: 8a35 c43d 5f43 e93d f3f7 27be 240c 253e
000002a0: c849 933e 7912 b23d efb3 563d 1dc1 23be
000002b0: ea8f 9a3e 48df 923e 1853 79be e82f 853e
000002c0: 5c5e 983e f9ac a3be da42 d03d 22ed 463b
000002d0: 65da 4c3c 24a6 8c3e 6b3c 793e ae4e 62be
000002e0: 4111 643e f694 8fbe 168c 23be ad05 3dbe
000002f0: 668a b83e 4b4c 7dbe c50e 97bd 166f 903d
00000300: 797e 983e 8b65 813d c325 2cbe 33a2 023e
00000310: 823c b9be 1ce1 8bbe d985 2ebe 1ba9 60be
00000320: 416f 383e afc2 a1be edaa 3abe bd21 c83c
00000330: 62c5 aebd 404a be3d 9927 1dbe 4ff0 4a3e
00000340: 894c 6fbc 7a8d 7dbc 54e0 aa3d 6498 94be
00000350: 7301 68be 9069 a03e d4a0 1ebe ff87 0ebd
00000360: 0cc3 70be 5a28 d43a e22f 273d 6a4d f13d
00000370: 3923 9dbe 84e6 c73d 71e7 d23d 5d4e e3bd
00000380: d658 66be 8aad e4bc afcd 0abe c51c 62be
00000390: d82d 123e 86c6 d0bc ee5b 823e 821c 3fbe
000003a0: dff6 aebe a407 043e 5cbe 57be 2c94 4e3e
000003b0: 4996 19be 902a 10be 4742 333e aae4 853c
000003c0: e08d cd3d 726e 8ebd d75b 66bc bfc1 bbbe
000003d0: 835c acbe 426a 28be ff3b 06be fd29 abbd
000003e0: 0e77 13be b5fc 0a3e 39c3 6cbc d91c 75be
000003f0: 5c0a eb3d 7bdd 80be 9bc6 88be 16ed 2f3e
0.12123167 -0.36287853 0.0055622635 -0.3138733 0.11819651 0.11332698 0.18017562 0.12057348
-0.020586796 -0.24066888 0.31356916 -0.15931913 0.26826474 -0.009145377 -0.10653531 -0.13450071
0.20785272 0.0824819 -0.16736653 0.29110518 -0.056158215 -0.09007679 -0.19761357 -0.059082333
0.22430632 0.044250958 0.022715615 -0.01578806 0.11361444 0.27748817 -0.07375986 0.24122728
0.44472247 0.19532624 0.11974148 -0.15509272 -0.2875598 -0.19054654 -0.37600854 0.09824048
-0.030039545 0.11521965 0.008825523 0.18188207 0.22347662 0.13636127 0.22689594 -0.08098136
-0.3103311 -0.25595576 0.0026699945 0.24582866 -0.3975002 -0.2945929 0.14480364 0.27173996
0.24257785 -0.008975203 0.30196494 -0.17476179 0.28509077 -0.01086304 -0.27029163 0.14178622
-0.17355001 -0.1014952 0.118571736 0.06446212 0.31564447 0.12302319 0.0028805558 0.24356772
-0.059033103 -0.039418276 0.09681392 -0.017396647 -0.055907685 0.066408314 -0.3012719 -0.23313059
-0.1290755 0.29830018 -0.010823248 0.14491566 -0.031265773 0.16094778 0.18618649 0.19062549
-0.25211272 0.15985882 0.002788101 0.17556997 -0.24501652 0.26205033 0.13830408 0.15602969
0.24832547 -0.25962615 -0.05528131 0.22995558 0.05846568 0.14179167 0.2564248 0.18658592
0.34708005 -0.10079771 0.07942307 0.23985054 -0.033764612 -0.057620164 -0.06709379 0.041284725
-0.19973695 0.061984114 0.21994436 -0.239281 -0.22060482 -0.1551145 0.2751144 -0.18545732
0.15769613 0.27131382 0.24265558 -0.0036475891 0.2777628 0.232392 -0.18309422 -0.11870471
0.13897873 -0.090219155 -0.031384096 0.29606566 0.15169147 -0.0931449 -0.018739643 0.1570312
-0.14921567 -0.21520387 0.28919706 -0.20154004 -0.20253737 0.23028286 -0.13195531 0.21745217
-0.09887021 -0.0887769 -0.11192327 0.0018787461 0.10071482 0.29642758 -0.29904455 0.33855453
0.31587052 0.27032375 -0.13024391 -0.079114445 -0.07100558 0.22663781 -0.11325163 -0.12848486
0.29589394 0.00083473226 0.1374626 0.08051279 0.09580524 0.11389803 -0.16403179 0.16117913
0.28767228 0.0869493 0.05241769 -0.15991636 0.30187923 0.28685975 -0.24348104 0.26013112
0.2975949 -0.31967905 0.10169001 0.0030353745 0.012503241 0.27470505 0.24339454 -0.22100326
0.22272207 -0.28043336 -0.15971407 -0.18459196 0.3604309 -0.24736135 -0.07375864 0.07052438
0.2978399 0.06318196 -0.1681128 0.12757187 -0.36178976 -0.27320182 -0.17043246 -0.21939509
0.1801119 -0.31593844 -0.18229266 0.02443015 -0.085337415 0.09291506 -0.15347137 0.19818233
-0.01460565 -0.015475625 0.083435684 -0.29022515 -0.22656803 0.31330538 -0.15491039 -0.034797665
-0.23511904 0.0016186342 0.04081715 0.11782344 -0.30690935 0.09760764 0.1029805 -0.11098931
-0.22494826 -0.027914781 -0.13555025 -0.22081287 0.142753 -0.025485288 0.25460762 -0.18663219
-0.34172723 0.1289354 -0.2106871 0.2017371 -0.14998735 -0.14078736 0.17505752 0.016344387
0.10036826 -0.069546595 -0.014059982 -0.36671254 -0.3366433 -0.16446784 -0.13108824 -0.08357618
-0.14400885 0.13572963 -0.014450842 -0.23936786 0.11476585 -0.25168976 -0.26714024 0.17180285

model.0.bias f4 [177]
00000000: 0ca0 503d 619a 8a3e 50f4 b3be c7ce 32be
00000010: ab8e b3bd 476c a8bc 8400 a13e e691 a9bc
00000020: c658 a43c 3aa3 ba3a 3b99 7fbe 7574 973d
00000030: 7a56 a3bc 1e4d 74be c6f9 90be 2b2d 49be
00000040: f96f a33e 5f43 0c3e b1a0 3f3e f09c 8cba
00000050: 59fd 6ebd 1275 bdbd bbd3 7e3e c657 03bd
00000060: c7e5 47be 6199 9dbe ed49 1b3d ba61 4ebe
00000070: b2f7 413e 619b 203e fd4d cd3b 413a d8bd
00000080: 3b04 7bbe eaea e9bd 5414 77be d7d9 52be
00000090: fefe 4a3d 3839 843e 8acd 23bd 8999 a03c
000000a0: 09c0 c03e 0eb3 7f3e 55b5 133e 4114 943e
000000b0: 634c 37be 676b 90be 2e2d a73d 052d 893e
000000c0: fc88 9ebe 3eeb a9bd 3e22 c13e a8f8 d93c
000000d0: 7e07 8ebe 352e 94be d468 c33d ca53 0bbe
000000e0: 4391 57be 6d67 c9bd 548e 9cbd 07c6 9dbd
000000f0: 9833 f43d 4579 3bbe 63b4 44bd 53ee 02be
00000100: 4731 853c e302 403e 3bdb a9bd 9045 2a3e
00000110: 4beb c43e faf6 893e 01f5 a43e 4713 843e
00000120: f9b5 c23e 671c ed3d 55eb 953e 2d17 973e
00000130: 9685 a73e 529f d0bd 339e afbc 94aa 553e
00000140: 012a d0bd 2589 133e a823 de3d d467 6dbe
00000150: f18e 8c3e 0b19 a3be f65e c3bc 2d09 103e
00000160: 185f 873e d793 323d 7794 4bbe 121b bc3e
00000170: e255 53be 175d 863c 6f0d 55bd 0cb2 ba3c
00000180: 3c59 68be b8d0 963e 6e8c 823e 7e2c 953e
00000190: ba87 ab3e 93b0 ea3d 357d 17be 0553 d03e
000001a0: a02c 8ebe aa92 a6bd 0b18 953e c24f aa3d
000001b0: 4475 cf3d 9846 983e 72f9 3cbd 531d c03e
000001c0: 9db0 a0be 3d16 41be f898 74be 282b cebe
000001d0: de75 663e 8a96 9c3e 4a1f 44be fa78 4dbe
000001e0: dcfb 60be 2d9e 12be 0fca 4bbe 1917 463e
000001f0: 2b9d e7bd 1e63 713d 1da1 23be 59f5 01be
00000200: edf6 003e 6e88 39be a61d aebd 864b acbe
00000210: 7792 773e 9b9b 41be ab6f b03e fa0e b63e
00000220: 7e0b a8be ce3f b23e 705c b93e c8a4 88be
00000230: 12d1 1dbe 749f b43c a7fb 8f3d f3a5 a1be
00000240: 6341 853e f9e1 903e 6c9f b63e 17b7 a83e
00000250: 80de 883e 3ad1 e63c 8a47 9c3e 3282 903d
00000260: 4436 9d3e 6e7b 2a3e 1cc9 443e e102 c03e
00000270: 3c28 91be 2e14 9f3e ab3f 773c f96c 413e
00000280: 7bc1 433e d6f4 c2bd 714b 8a3d dbc8 0dbe
00000290: f8a0 793e df82 093b 5909 b73e 5de6 8bbe
000002a0: ee2b dd3d beeb f73d ecad 1abe 51c7 ee3d
000002b0: 4525 28be 3475 6bbd 634a bf3e d8ad c23e
000002c0: 7659 c83e
0.050933883 0.27070907 -0.35147333 -0.17461692 -0.08767446 -0.020559443 0.31445706 -0.020699453
0.020061862 0.0014239319 -0.24960797 0.07395259 -0.019938696 -0.23857543 -0.28315562 -0.19646136
0.31921366 0.13697575 0.18713643 -0.0010727923 -0.05834708 -0.09250845 0.24885456 -0.03206613
-0.19521247 -0.3078108 0.037912298 -0.20154467 0.18942145 0.15684272 0.0062654004 -0.10557986
-0.24513333 -0.114217594 -0.24128848 -0.20590912 0.049559586 0.25824904 -0.03999094 0.019604461
0.3764651 0.24970648 0.14424641 0.28921703 -0.17900233 -0.2820694 0.08162914 0.2679216
-0.30963886 -0.08296822 0.37721437 0.026607826 -0.2774009 -0.28941503 0.09541479 -0.13606182
-0.21051507 -0.0983418 -0.076443344 -0.07703786 0.11923903 -0.1830798 -0.048023593 -0.12786226
0.016258849 0.18751101 -0.08293768 0.16628098 0.38460764 0.2694624 0.32218173 0.25795957
0.3802946 0.11577683 0.29281107 0.2950987 0.32719105 -0.10186638 -0.02143774 0.20865852
-0.101642616 0.14407785 0.10846645 -0.23184139 0.27452806 -0.31855044 -0.023848992 0.14066
0.26439738 0.043598022 -0.19880854 0.36739403 -0.2063823 0.01640181 -0.052014764 0.022789977
-0.2269029 0.29456115 0.25497764 0.29135507 0.3350199 0.1145946 -0.14793856 0.4068834
-0.2776842 -0.08133443 0.29119906 0.08315994 0.101297885 0.2974136 -0.046136327 0.37522373
-0.31384745 -0.1885614 -0.23886478 -0.402673 0.225059 0.30583602 -0.19152561 -0.2006568
-0.21971077 -0.14318152 -0.19901298 0.19344749 -0.11309274 0.058932416 -0.15979429 -0.12691249
0.12594195 -0.1811845 -0.08501749 -0.3365137 0.24176966 -0.18907015 0.34460196 0.355583
-0.32821268 0.34814304 0.36203337 -0.26688218 -0.15411785 0.02204869 0.07030421 -0.31571922
0.2602645 0.28297403 0.35668504 0.32952186 0.26732254 0.028175939 0.3052333 0.07056083
0.30705464 0.16648647 0.19217342 0.37502196 -0.2835101 0.31070083 0.015090863 0.18889226
0.19116776 -0.09519355 0.067526706 -0.13846152 0.24377811 0.0020982546 0.3574932 -0.2732419
0.107993945 0.12105511 -0.15105408 0.1165911 -0.16420467 -0.05748482 0.3736144 0.38023257
0.39130753

model.3.weight f4 [177, 177]
00000000: 16a0 363d a1cd 57bd cc93 f33c ef5e 8a3d
00000010: e8a6 b23c a1ed 063d caab 5a3c 6564 5c3d
00000020: 9bc9 0fbd 7b6c 873d 088a 23bc 4e93 d93c
00000030: 6e96 89bd 7919 6abd baf8 183d 995e f53c
00000040: 2cd3 70bc 9d6e 9bbd 6181 14bc 5f57 9e3d
00000050: dda1 06bd 8cd3 58bd bf88 893d 9d3f 693c
00000060: 3e8f 5fbd 7e42 20bd 1d53 193d 9387 8cbd
00000070: 66eb 543c e967 5f3d 98b4 7d3d 9554 263d
00000080: 7e00 6d3d 2915 d43c dae6 313d de9a adbb
00000090: b4a9 1abd 8969 1cbc e28d 83bc 325c 883d
000000a0: e3ea d7bc 828c de3a eef0 c53c 0e66 9d3b
000000b0: 5fe9 123d 650b b13c d8f6 863d b60c e6bc
000000c0: 21ad 71bd 2d1a ac3c d052 d3bc 2988 87bc
000000d0: 3c1f c9bc 213b f3bc 93d9 a33c 33e9 26ba
000000e0: 8705 733d 9e42 42bd 08b7 333c 8bb4 473d
000000f0: 087f a53c ec47 5a3c 11f2 b43c 7655 c2bc
00000100: 236f 3fbd d60c 5b3c 8851 5dbc e5cf a63d
00000110: 1c41 1bbd 2a1b d2bb 9f83 46bd f8d6 133d
00000120: 2ef4 8f3d 339e ba3d 6735 2cba 5e25 ba3b
00000130: f33b 0cbd ee8f b03d 85ec 6e3d bce4 1c3d
00000140: 0504 a3bc 697e 4bbd 7d6f ba3d e322 dcbb
00000150: b37c 233d d0c9 0a3d 6399 16bd 333e 053d
00000160: ecb9 4d3d da2c 973d 918a 983c 4252 373c
00000170: acce 933d e7d0 09bd 0f00 453d 3e36 8b3d
00000180: 440e 243d ebe5 d33c 3574 4f3d 17a5 9dbd
00000190: a0ab 80bc 2757 b23c 941e 5abd a69a d03d
000001a0: cce6 963d c48c c3bc 4a98 1fbd e07f 29bd
000001b0: 6a9d dabb 8755 f5bc 4ef5 3cbd 236e 2fbd
000001c0: f703 3d3d ac9f a63d 56e5 32bd 8909 6bbc
000001d0: 9ea1 673d 4d15 5fbd 7d86 f73c f21e a93d
000001e0: 79cb fdbc 4d11 e63c 2f65 47bc 7cc5 743d
000001f0: 54df 4abd 0ffc 473d 569f 5dbd 233b d83c
00000200: 4293 74bd 18b7 16bd 1c1b bd3c 0ff4 3dbd
00000210: 7798 40bd 0e41 41bb 61ee 653d 4c72 db3c
00000220: 8fa4 503d ba38 93bc c767 d5bc af86 5ebd
00000230: 89a5 623d fccb b33d 3b23 4f3d 4993 28bc
00000240: 80b6 583c bc2e e93a 516e a4bb 526e 573d
00000250: 90ff fc3c cd1e 193d 58cd 3ebb 35f3 8639
00000260: de4f 54bd 0651 fdbc 8e5c c73c 44fe c43d
00000270: ea76 373d d56c 3ebd 4a46 4dbd b07c 943b
00000280: aea4 2b3d e09f 133b fc8f e4bc ed9d 80bc
00000290: 1802 9cbd eec8 7f3c 1546 14bd 54a1 a33c
000002a0: 901c 7a3d a0c4 babc 98fa f23c 7a52 c63d
000002b0: c3ec 00bd e17c c23d 0d45 7c3d 48ce 80bd
000002c0: 282e 463d 2aee 4a3b be9e 2bbd 2112 f03c
000002d0: 2883 22bb 79b9 15bd e660 a3bb 0848 4d3d
000002e0: 3c0c cfbc e339 56bd e02b a1bd bd54 36bd
000002f0: cfd2 f03c 660a 903b 1f9e 413d f206 d739
00000300: e590 683d 04aa c6bc 070d b33b 0271 99bd
00000310: fc13 ef3a 4aab a73c 05ce 4e3d 2f35 23bd
00000320: 1c4d 84bd 53b7 70bd 8ce0 fcbc 2f12 41bd
00000330: 469b 9abb 237f 50bb e561 1abd 009d 2fbd
00000340: eb2e 963b 955a 373d eabf a83c 2aeb 76bd
00000350: f2dd 93bc bd54 97bd 5935 7cbd d4ba 35bc
00000360: 60b9 213d 9ec6 2abd 6034 64bd 351d fabb
00000370: d88e b23c ed8c 093c c8ab 03bd f894 95bc
00000380: 7923 9b3c d16d 99bd 9f61 203d dbdc 2cbc
00000390: 00e0 583d 4292 173d e5d3 51bc 491f 813b
000003a0: 01d1 86bd f5f0 17bd 547e 45bd 2910 c5bc
000003b0: 7843 79bd 21b6 f0bc 1b2f 53bc f07d 72bd
000003c0: 4046 7fbc 441a f33c aef4 04bd a9d3 0dbd
000003d0: dd8d aabd 7890 a1bc 21ed 403d c326 02bd
000003e0: ddab 5dbd d152 89bd 0e1e ba3b eff9 5fbd
000003f0: c5b2 69bd 8ce1 833d 020d 7e3d 6aff ca3c
0.044586264 -0.052686337 0.029733561 0.067563884 0.021808103 0.032941464 0.013346622 0.05380668
-0.035104375 0.06612488 -0.00998164 0.026559498 -0.06718145 -0.0571532 0.03734658 0.029952334
-0.014698785 -0.07589457 -0.009064049 0.077315085 -0.03286921 -0.05293612 0.06715535 0.014236358
-0.054579966 -0.039125912 0.03743278 -0.06861796 0.0129955765 0.054542456 0.061939806 0.040608007
0.057861798 0.025888996 0.043433048 -0.0052980026 -0.037759498 -0.009546646 -0.016058866 0.0665821
-0.02635712 0.001697913 0.024162736 0.0048034256 0.03586709 0.021611879 0.065900505 -0.028082233
-0.059003 0.021008575 -0.025796324 -0.016544418 -0.024551027 -0.02969128 0.020001208 -0.0006367147
0.059331443 -0.047426812 0.010968931 0.048756164 0.020202175 0.013322812 0.022088083 -0.023722392
-0.046736848 0.01336976 -0.013508208 0.081451215 -0.03790389 -0.0064119296 -0.048465367 0.036093682
0.070289955 0.09112205 -0.0006569237 0.005680724 -0.03423686 0.086212024 0.05833103 0.038304076
-0.019899378 -0.0496811 0.09103296 -0.006718026 0.039913844 0.03388387 -0.036767375 0.03253002
0.050226137 0.07381602 0.018620761 0.011189045 0.07217154 -0.03364649 0.04809576 0.06797455
0.040052667 0.02586647 0.050647933 -0.07697504 -0.015706837 0.021770073 -0.053251818 0.10185747
0.0736824 -0.023870833 -0.038963594 -0.041381717 -0.0066715972 -0.02994801 -0.04613238 -0.042829644
0.04614636 0.08135924 -0.043675743 -0.014345535 0.056550615 -0.054463673 0.030215496 0.082578555
-0.030980812 0.028084422 -0.01217012 0.05975865 -0.04952939 0.048824366 -0.054107033 0.026395386
-0.05971075 -0.036795706 0.023084216 -0.04637533 -0.0470204 -0.0029488239 0.05613554 0.0267879
0.050938185 -0.017971385 -0.026050461 -0.054327663 0.055333648 0.08779141 0.050570708 -0.010289022
0.013227105 0.0017790417 -0.0050180336 0.052595444 0.03088358 0.03738289 -0.0029114094 0.00025739675
-0.05183398 -0.030922424 0.024336126 0.0961881 0.04479114 -0.04649051 -0.05011586 0.0045314655
0.041905098 0.0022525713 -0.027900688 -0.015700305 -0.07617587 0.01561187 -0.036199648 0.019974388
0.061062396 -0.022798836 0.029660508 0.096837 -0.031475794 0.09496475 0.06158929 -0.06289345
0.04838386 0.003096471 -0.041899435 0.02930552 -0.0024797413 -0.036553834 -0.0049859164 0.050117522
-0.025274388 -0.0523013 -0.078696966 -0.044514406 0.029397396 0.004395771 0.047269937 0.0004101317
0.056778807 -0.024250992 0.0054641995 -0.07492258 0.0018240209 0.02046742 0.050489444 -0.03984564
-0.0646002 -0.05876858 -0.030868791 -0.04713648 -0.004718217 -0.003181406 -0.037691016 -0.042874336
0.00458323 0.04476412 0.020599324 -0.060282864 -0.018050168 -0.073892094 -0.061574314 -0.011091907
0.039483428 -0.041693322 -0.05571401 -0.0076328763 0.021796629 0.008395416 -0.032146245 -0.01825951
0.018937813 -0.07491649 0.0391556 -0.010550703 0.052947998 0.037004717 -0.012806867 0.003940497
-0.06582833 -0.03709503 -0.04821618 -0.024055557 -0.06085536 -0.02938372 -0.012889649 -0.059202135
-0.015580714 0.02967561 -0.032459907 -0.034625683 -0.083278395 -0.019722208 0.047101144 -0.031775247
-0.05411898 -0.06705249 0.0056798523 -0.054681715 -0.057055254 0.06439504 0.062024124 0.024779994

model.3.bias f4 [177]
00000000: 3da9 333d 476b 2fbd f4f9 20bb dff9 b83d
00000010: ff29 c03d d557 cf3b cd29 9d3c a78f 6b3d
00000020: a781 993d 88cc b23c 11b4 d43c 47e0 3f3d
00000030: 8391 5a3d 8979 80bd e79e 89bc 3653 023e
00000040: 189f 683d bb25 103e 8421 0d3e 25da b23d
00000050: 088e ea3c d838 073e 318e 113e 061e 083e
00000060: ee8e 0e3b 2315 8f3d 3b60 d73d e807 8e3d
00000070: 4c3d adbc 0d5b 8c3d 5f59 b23d 4b3c a03d
00000080: 71d2 bf3c 1c1e 183e f753 0d3e 5370 cd3d
00000090: ac1e 143e 2ca8 cd3d 9562 00bd 2ba0 c53d
000000a0: 6a30 543d bee8 003e 292b 3e3e 375d 073e
000000b0: 67aa b5bd 7c76 013d 2a61 953d c013 403d
000000c0: 9d43 7d3d b0db 1e3e 6fdb 8ebd 431a 5a3d
000000d0: 357a 353a d311 f43d 77a2 31bd cc1c 26bd
000000e0: 2b09 c43d c80c 68bd 01f9 973d a7b7 d33d
000000f0: f227 0c3e 8379 1b3e edc5 1c3d 0e22 7d3d
00000100: 600b a43c ee4a 193e abf8 583d b160 4a3d
00000110: fb75 66bd 0d2e 57bc b76b 2f3d 0595 e4b9
00000120: 66f2 683c 5206 acbd 0a63 163e f60a 8f3d
00000130: 2b54 c7bd 9461 bd3c 2319 22bd 405b 103e
00000140: d8f1 063e 8897 3a3d b947 763c 1d91 2c3d
00000150: b9f3 4a3d 9d80 093e 236b 1abe 75ff cdba
00000160: 9231 ae3d f066 2a3e 783a 823d de96 b93d
00000170: 8ea8 613d ebf0 babd 1cd7 173e a9db 833d
00000180: 40b5 c13d 96c4 8a3d 2152 373e 2e87 d23d
00000190: f6ea 733d 9337 ea3c 9667 383d d4d6 133e
000001a0: 40a1 84bd 3ca5 903d f002 a0bd 0f33 fc3d
000001b0: bdfc 30bd d825 ae3c e329 0dbd 3312 1cbc
000001c0: 910f fd3d 49c9 993d 102c 113e b6f7 303d
000001d0: 33ae d23c 2027 ba3d 4004 e83c da80 09bc
000001e0: 2a3e 6a3b d649 2d3c a6cb 683d 716d 033e
000001f0: accb 0a3e f7e5 973b 53ee 913c beaa 193e
00000200: 8ed3 693c 2ff9 c83d 0d85 d93d 63da 143e
00000210: 8647 663d 3a33 0e3e ec67 853d b8a7 ef3d
00000220: 03da de3c f500 0e3e c751 273c b404 033e
00000230: b4c4 9fbc 7673 bebc 001b 733d e299 923d
00000240: fefb bc3d d9c3 f13c 5191 243e da28 163d
00000250: c6a1 003e 6945 053e e3ff 733d c80c f23c
00000260: 3892 64bc e178 0a3e ff83 b83d c48e c33d
00000270: aaf8 063e 48f6 bc3a d7d8 e03d bde7 113e
00000280: 6019 253e 2af0 ae3d 7ebc 6ebc 9772 8b3e
00000290: 6954 103e bfd0 f63d d7ad 86bd f8d3 a83d
000002a0: a1ec be3d 775f 123e 5998 933d 1439 5bbd
000002b0: f6b3 d43d 43c8 033e 101e e13c 3b65 113e
000002c0: 2ff2 643d
0.04386257 -0.042826917 -0.0024563046 0.09032034 0.0938301 0.006327609 0.019184971 0.057510044
0.07495432 0.021826044 0.025964769 0.046844747 0.053361427 -0.06273181 -0.016799403 0.12727055
0.05679235 0.14076893 0.13782316 0.08733014 0.028632179 0.13205278 0.14214398 0.13292703
0.0021752673 0.069864534 0.105164014 0.06935102 -0.021147393 0.06853304 0.087084524 0.07824
0.023415776 0.14855236 0.13801561 0.1003119 0.14464825 0.10041842 -0.031344015 0.0964969
0.051803984 0.12588784 0.18571152 0.13219152 -0.08870392 0.031607136 0.07293923 0.046893835
0.06183206 0.15513492 -0.069754474 0.0532477 0.00069228123 0.11917462 -0.04336783 -0.040554807
0.09572061 -0.056652814 0.074205406 0.10337763 0.13687113 0.15183072 0.038274694 0.061800055
0.020024955 0.1496999 0.052971523 0.04940862 -0.05626486 -0.013133538 0.042827334 -0.00043598577
0.014217949 -0.08399643 0.14686218 0.069845125 -0.09732851 0.023117818 -0.039574753 0.14097309
0.13178194 0.045554668 0.015031748 0.04213058 0.04954884 0.13427968 -0.15079932 -0.0015716391
0.085055485 0.1664083 0.06358808 0.09061979 0.055092387 -0.09127983 0.14828151 0.06438381
0.09458399 0.06775777 0.17902423 0.1027969 0.059550248 0.028590953 0.045020662 0.14437419
-0.064760685 0.07062766 -0.0781306 0.12314426 -0.04320978 0.02125828 -0.034463774 -0.009525823
0.12356485 0.07509095 0.14176965 0.043204986 0.02571783 0.09089494 0.028322339 -0.008392537
0.003574262 0.010576686 0.05683484 0.12834717 0.13554257 0.0046355682 0.017813837 0.15006539
0.01427163 0.09813153 0.106210805 0.14536433 0.056220554 0.13886729 0.06513962 0.11701912
0.027203565 0.13867553 0.010212368 0.12794763 -0.019502975 -0.023248415 0.05935192 0.07158257
0.09227751 0.029512333 0.16071059 0.036660053 0.12561712 0.13014759 0.059570204 0.02954711
-0.013950877 0.13522674 0.09009551 0.09548715 0.13180795 0.0014416659 0.10978859 0.14248557
0.16122961 0.085419014 -0.014571307 0.27235863 0.140947 0.12051534 -0.06576126 0.08243555
0.09322477 0.1429423 0.072067924 -0.05352123 0.10385887 0.12869363 0.027480155 0.14198773
0.055895027

model.6.weight f4 [177, 177]
00000000: 3e4b 2abc b77a 263d 5bbf 3abd 694e b7bc
00000010: 41ec 353d 9004 053d 47e4 953c d0c6 36bd
00000020: 838a 45bd 054c 893c 4d34 1fbd 927c 503c
00000030: 2ee5 c53c 950f 0e3c 47be 2dbd e218 4cbd
00000040: cd18 75bd cd62 d6bc db47 833c 9791 243d
00000050: 8677 02bd 414b 2f3d 8597 efbb 0496 b93c
00000060: b000 913d 83d0 ea3c 690d 77bd b0b5 213d
00000070: 48bf 683c 11f3 63bc 0693 863d 3ad3 92bc
00000080: 4a5c 1b3d b9b1 b7bc b5b8 713d bece 543d
00000090: d5c4 aa3d b6f4 903d 50a5 aebc aa0d b0bc
000000a0: 8550 41bd bfbb 6dbd d79b ee3c 1629 55bd
000000b0: 2f39 4fbd e304 11bd e505 053b 158e 963d
000000c0: 67f8 49bd c631 1a3a 1cca be3b 28cc 853d
000000d0: 0123 29bd 8e36 a03d 5359 9a3c 6d83 19bd
000000e0: ed3b c7bc c6e8 253d 198b 0c3d 1c7d e13c
000000f0: c16c 8aba 82a8 9d3d d88a b6bb fa1e cfbc
00000100: 4166 8ebd 7f69 353d 842e 843d 7984 003c
00000110: 30d0 703d 0525 3e3d d6bf c03d 40cb 1dbd
00000120: c12a 843d a8a8 96bd 1071 563c 46ff 80bc
00000130: ecd0 e63b 2395 ebbc 1bfa 383d e62c 82bd
00000140: 1705 a83d 1743 653d 9266 54bd 2207 01bd
00000150: 615b c6bc beda 14bc e43c 85bd 14cc 4bbd
00000160: b066 9b3d 0d44 8c3d 43e6 e53c 4346 27bd
00000170: 670d 49bd 564c d1bc 004f 593d e8af 4e3d
00000180: 5eed 79bc 2498 883c 394d 213c b31d 113d
00000190: c7ed 3f3d 3aff 46bd e478 9c3d 84fc ca3c
000001a0: 7b61 7cba 0d65 263d 209e 4a3d 2b7a 4d3c
000001b0: 4dab a83d 4988 adbb 94ac 68bd 0ead 95bd
000001c0: 3f60 e33b 578b 4f3e b502 6c3d 739c b63d
000001d0: f0ab 46bd 2d3c 7fbd 79cc 59bd 5ec3 f33c
000001e0: 7aa0 79bd 53d2 a23d c640 913d 9301 1abb
000001f0: 8dfb c03d b7bf 58bd d0c7 22bd 70d3 ba3b
00000200: fa0c 5ebd a7de 2b3b 2c98 b23d a87b 88ba
00000210: 0f69 033e 14d2 3abb f110 843d 31cf 263d
00000220: aa19 00bd f6e8 853d 8901 5cbc 4394 63bc
00000230: 7076 a13d 3d50 183b e67c fd3c f8f3 e93c
00000240: b0e7 23bc d487 05bc 76dd 1bbd 9e82 77bd
00000250: a7d0 bb3c 799f d6bc 74e5 3bbd d02b 77bd
00000260: ecbb 9739 8a53 b0bc fc52 c53d 16da b9bc
00000270: 5a42 96bc b735 9f3d 98f2 993c 8e15 de3c
00000280: c337 253d 7cc5 9a3d 7001 263d da28 e63d
00000290: 3f4f cfbc 79fb 59bd d817 243c 8a99 f83c
000002a0: d1ef 0cbd 6e8b 6fbd 119f 70bd 325f f9bc
000002b0: 2be2 683b e9e4 f3bc 006a 383d d6f6 eabb
000002c0: 6eb2 ebbc b49e 433d 31e8 7b3c 14ff a03d
000002d0: 9d6e c93d 3d89 4c3d 59d8 c83d df89 9a3d
000002e0: 10a3 a13c 83ca 9a3c 0195 aebc 8f68 6e3d
000002f0: c7ed ca3d 1889 4dbd 6c83 4cbd 7df0 af3d
00000300: 463b 4abd 4cda 41bb 3e62 8b3c f59d 893b
00000310: d801 a6bb f5c4 883d 43a0 10bd 0661 c7bb
00000320: d539 953d 0449 893d 18f2 13bd bdf6 12bd
00000330: bd74 8ebb 4da0 3e3a 84c9 cd3c caea a23d
00000340: bc09 b2bc 7676 69bd d5ab f13c 92a0 923d
00000350: e593 d23d cf2d 313d 5b4d 13bd bf8d 863d
00000360: 196c 3fbd 83de 93bd 9807 d23d 8430 1ebd
00000370: d423 3ebc 6455 67bd ac15 863d f49e ae3c
00000380: f5b4 523d ebe6 463d 47fc b73d 2411 c53c
00000390: 464a 643d abbf 8a3d b62b 003d 1c0e 7d3c
000003a0: 843f 1a3c 218e a33d 4d46 083d 8b4b 30bc
000003b0: 6b79 0e3c c8e4 603d 9e9d cabc 025b a03d
000003c0: b424 27bd 4296 4abd 237d bbbc ab29 ca3d
000003d0: 004d 2e3d 64c8 8f3d 80bb 033d d0b9 d23d
000003e0: cad0 c93d 0421 553c 58b0 e1bc 6a8f 11bd
000003f0: 59b3 ba3d 967b 33bc 8241 4bbd 5161 3b3d
-0.010393916 0.040644374 -0.045592647 -0.022376256 0.044414762 0.032475054 0.018297328 -0.044623196
-0.0482278 0.016759882 -0.038868237 0.012725012 0.024157133 0.008670707 -0.04241779 -0.049828418
-0.059838105 -0.026170159 0.016025474 0.040177908 -0.031852268 0.042796377 -0.0073117637 0.02265454
0.07080209 0.02866388 -0.060315523 0.03947991 0.014205761 -0.013912932 0.06571011 -0.017922986
0.03792981 -0.022423612 0.05901404 0.051954977 0.08338324 0.07077925 -0.021319062 -0.02149089
-0.04719593 -0.058040377 0.029127045 -0.052041136 -0.050591644 -0.03540505 0.0020297703 0.07351319
-0.04930916 0.00058820506 0.005822433 0.0653308 -0.041293148 0.078229055 0.018841421 -0.037478853
-0.024320567 0.040505193 0.03431234 0.027525477 -0.0010560976 0.07698156 -0.0055707507 -0.025283325
-0.06953097 0.044290062 0.06454185 0.007844084 0.058792293 0.046422023 0.0941159 -0.038523912
0.06453467 -0.073563874 0.01308848 -0.015746724 0.0070439484 -0.028757637 0.045160394 -0.0635622
0.08204096 0.055972185 -0.05185563 -0.031500943 -0.024213495 -0.009085355 -0.065057546 -0.04975517
0.075879455 0.06848917 0.028063899 -0.04083849 -0.049085047 -0.025549095 0.053053856 0.050460726
-0.015254347 0.016674109 0.0098450715 0.035428714 0.04685762 -0.048583247 0.076402456 0.024778612
-0.0009627563 0.040623713 0.049467206 0.012541334 0.08235798 -0.0052957875 -0.05680521 -0.07308398
0.0069389637 0.20267998 0.05761977 0.08916559 -0.048503816 -0.062313247 -0.053173516 0.029756244
-0.060944058 0.079502724 0.07092433 -0.0023499473 0.094229795 -0.05291721 -0.039741337 0.005701475
-0.054211594 0.002622524 0.08720431 -0.0010412829 0.12833045 -0.0028506564 0.06448544 0.040724937
-0.031274475 0.065385744 -0.0134281 -0.013890329 0.07883918 0.0023241185 0.030943345 0.028558716
-0.010003969 -0.00815006 -0.038053 -0.0604273 0.022926642 -0.02619909 -0.04587312 -0.060344517
0.00028940977 -0.02152421 0.09634969 -0.022687 -0.018342186 0.07773917 0.018792436 0.027109887
0.04033638 0.075571984 0.040528715 0.112382606 -0.025306342 -0.05321834 0.01001545 0.03034665
-0.034408394 -0.05848258 -0.058745448 -0.0304409 0.0035535197 -0.029772239 0.045022964 -0.0071705384
-0.028771605 0.047758773 0.015375183 0.07861152 0.09835551 0.049935568 0.0980689 0.07545828
0.019731075 0.018895393 -0.021311285 0.058205184 0.09908634 -0.05017957 -0.04993002 0.085907914
-0.049372934 -0.0029579578 0.017014619 0.004199738 -0.0050661378 0.066781916 -0.035309087 -0.006084564
0.07286421 0.0670338 -0.03611955 -0.03587984 -0.0043474124 0.00072718115 0.025120504 0.07954939
-0.021733157 -0.05699774 0.029500881 0.071595326 0.10282115 0.043256577 -0.035962444 0.06570005
-0.04673395 -0.07220175 0.10255355 -0.038620487 -0.011605222 -0.05647792 0.06547102 0.02131603
0.051442105 0.048560064 0.08983665 0.024056025 0.055734895 0.06774839 0.031291686 0.0154452585
0.009414557 0.07986093 0.03327017 -0.010760198 0.0086959405 0.054905683 -0.02473336 0.07829858
-0.040806487 -0.049459703 -0.022886818 0.09871229 0.0425539 0.07020643 0.032161236 0.10289347
0.098542765 0.01300836 -0.027549908 -0.03553716 0.09116239 -0.010954758 -0.04962302 0.045747105

model.6.bias f4 [177]
00000000: b0c7 383d 13f0 9e3d 4713 d63d b243 bc3d
00000010: 493d 4e3d 6885 06bd 2ee6 bd3d 7f2a a4bd
00000020: 3830 bc3d e9fc 7fbd 1c46 973d ee4f 843d
00000030: b775 d13d 9118 e53d 85e0 d43d 96e6 eb3d
00000040: d263 203e a8fd b53d 3909 62bd f7b7 303e
00000050: 87c7 b1bd c590 be3d 35c0 12bd 9c62 dc3d
00000060: bb77 133e 6abc 623d 9ba3 403e 4afc b7bd
00000070: e38c 2c3e 764b e4bc 1533 093e f6ab 27bc
00000080: baa4 353d a621 d33d 1279 e3bc 1f0b 0f3e
00000090: 9f20 083e e3cb 3b3e de7c a43d 40ce f83d
000000a0: 0181 b9bd f024 0f3e 3e0c 2b3e e54b 003e
000000b0: 1084 b2bd b0a2 1d3d a1f1 5a3d ff71 093e
000000c0: 3932 35bd c006 013e 4243 0f3e 59e3 a63d
000000d0: 422c b23d 6ea2 383e 45a0 133e da96 0a3e
000000e0: 15d8 6a3b 9da6 be3d 391b 79bd 2b0d f43d
000000f0: d2de ae3d cdce b1bd 8945 da3d e382 c2bc
00000100: bfb9 213e 180d 4b3d 9ac6 273d 68a7 103e
00000110: f2cb 39bc 6d93 4e3d 5c7f 99bd 8f6c 6d3d
00000120: 70cf c43d beff 3f3e e151 193e 4f21 283e
00000130: ab06 c73d 4cc5 083e ffc0 153e 8323 af3d
00000140: 698a 1f3e 8f7c ae3c c5ed ffbc b3aa dc3d
00000150: c375 f03d cff7 7bbd ad9b 293e 9c85 bc3c
00000160: 27d8 263e 0989 613d 29b7 98bd 9658 c63d
00000170: 8f1e eb3c 3d91 04bc 37c7 a13d e289 9f3d
00000180: 7652 c53c 5ec6 433e c252 fd3d 71ed 293d
00000190: 81d0 1f3e 4d00 133d d860 ffbc eb9c 273e
000001a0: c489 193d f362 37bd 5cab 2bbd b963 0d3c
000001b0: 2098 a53d 3d9f cd3d 8ab1 4d3d 0343 983d
000001c0: 1933 1b3d d282 83bd 0bfa 2b3e a79d 353e
000001d0: e309 2a3d 24e2 423e f3fd 173e 1c27 423e
000001e0: 3c93 db3d 5afe 193d 6470 293d 3ded 0b3e
000001f0: ee22 ef3c a769 003e 1f9a 59bd f783 be3d
00000200: b72a a23d fe81 ba3d b645 293e 2c64 243e
00000210: ee68 0c3e c43a c2bc a8a6 1a3e 951e 4cbd
00000220: 27f6 e03d 3e97 23bd cea6 c43d 18a5 d93c
00000230: 3689 a13d 2e6d fd3d 5bf6 a8bd 46fd db3d
00000240: d936 323b f6ae c43d 35ff 133e ea4a ca3d
00000250: b8ff c83d 8fd5 3ebd d888 7f3d 28fd 9dbb
00000260: fffe 8e3c 3ee6 1d3e 27ee 50bd 521d ee3c
00000270: 5fa7 f93d b79a 603d 1338 d6bc 8332 1f3e
00000280: 81ec 643d a010 e8bc 3c67 353e be96 343c
00000290: 554f 41bd 6bb3 e03d 139d 113e dd2d cabd
000002a0: 90c7 b4bd 50fd 2f3e f0f6 a4bc 378a a5bd
000002b0: 3eec 183e 7f2b 423e fa57 4a3d 1b15 bc3d
000002c0: eac6 633d
0.04511231 0.07760634 0.104528956 0.09192599 0.050351415 -0.03284207 0.09272419 -0.08015918
0.091888845 -0.062497053 0.07386419 0.06460558 0.102275304 0.11186326 0.10394386 0.1151859
0.15663078 0.08886272 -0.055184577 0.17257677 -0.08680635 0.09304956 -0.035827834 0.10760996
0.14401142 0.055355467 0.1881241 -0.08983667 0.16850619 -0.027868014 0.13398392 -0.01023387
0.04434655 0.10309152 -0.027767692 0.13969086 0.13293694 0.18339495 0.08031629 0.12148714
-0.09057809 0.13978934 0.16703889 0.12528951 -0.08716595 0.03848523 0.05345309 0.13422392
-0.04423735 0.12600231 0.139905 0.08148832 0.08699848 0.18030712 0.14416607 0.13534108
0.0035834361 0.09309123 -0.060816977 0.11916574 0.08538593 -0.08682022 0.10657794 -0.023744052
0.15793513 0.049573034 0.040960886 0.1412636 -0.011340128 0.050433565 -0.07494995 0.057964858
0.09609878 0.18749902 0.1497264 0.16418956 0.09718069 0.13356513 0.14624403 0.08551695
0.15580143 0.021299629 -0.031241307 0.10774746 0.11741211 -0.061515626 0.16563292 0.023012929
0.16293393 0.055062328 -0.0745681 0.09684865 0.028701095 -0.008091268 0.07899325 0.07789971
0.024087172 0.1911864 0.123693004 0.041486207 0.15606882 0.03588896 -0.031174108 0.16368453
0.0374849 -0.0447721 -0.041911468 0.008629733 0.08085656 0.10040138 0.050218143 0.074346565
0.037890527 -0.06421436 0.16794603 0.17735921 0.041513335 0.19031578 0.14842968 0.18960232
0.10721442 0.037596084 0.04136695 0.13664718 0.02919146 0.12540303 -0.053125497 0.09302514
0.079183035 0.09106825 0.16530499 0.16053838 0.13711902 -0.023709662 0.15102637 -0.049833853
0.1098445 -0.039939158 0.09602128 0.02656798 0.07887499 0.1237434 -0.082501136 0.107416674
0.0027193336 0.09603684 0.14452823 0.0987757 0.098143995 -0.046590384 0.062386364 -0.0048214383
0.017455576 0.15419862 -0.05100837 0.029066715 0.12190127 0.054835048 -0.026149785 0.15546612
0.05588961 -0.02832824 0.17715162 0.011022268 -0.047194798 0.10971721 0.14220075 -0.09872029
-0.08827126 0.17186475 -0.02013728 -0.08083003 0.14933869 0.18961905 0.049400307 0.09183713
0.05560962

model.9.weight f4 [177, 177]
00000000: afae 40bd 7384 bdbd 6848 533b 8412 75bd
00000010: 9fc9 bebd e3c8 16bc 4f9b 023d a45d b73c
00000020: 2fa4 2c3c e460 00bb 761e 9639 b712 c2bd
00000030: 0b59 cf3c a89f b9bd cc14 1abd 2843 87bd
00000040: 2766 073d 240e dcbb 60d4 17bd e4de 0a3d
00000050: 62b0 59bd 2a1c ebbb e311 85bd 02e0 26bd
00000060: 0fd3 3b3d d2dd bbbc c5ed c5bd 4b73 44bd
00000070: 18c2 ec3c a156 3f3d 6dba 9c3c d1b2 403d
00000080: 0eec 01bd acbf b1bb aa48 573c 73c7 98bd
00000090: defe 9ebb aea2 ccbd 6a4f b9bd 194f a3bd
000000a0: 12c8 963c d826 8bbd 344c 3abd 5562 fa3c
000000b0: d52c 44bd 18d7 4d3b c20e 6aba 029a 88bc
000000c0: 7a85 36bd ad1b 363d f6f1 e53b a4c5 36bd
000000d0: 9651 313d ee09 f23c fea4 e1bc 31c9 b6bb
000000e0: fbbb 90bc 6425 b4bd fc4d 96bc 5991 9f3c
000000f0: e866 8cbd bffb dc3b a60e 2a3d df54 69bc
00000100: 886a 05bd 6c23 efbc c1c0 96bd 3b11 9abd
00000110: 45ca 09bd 391f b9bd 2a4e c4bd c6ed 49bc
00000120: 9b3e 8e3c f6c6 37bc 92bf 843c bc99 7bbc
00000130: 05bc 2b3d b06f babc c7a2 18bd 1026 e13c
00000140: 3a7f c5bd 18a3 aabd d132 2a3d 16a0 cbbd
00000150: 5544 bb3c d04d 233d 31b7 483b dbc3 413d
00000160: 4b6e bdbd ac67 953b db00 7c3d edd3 c9bc
00000170: 461d 613d 428a 2a3d d704 933b eb96 2b3b
00000180: b095 a7bd 8438 e9bb c30c cabd f1de d8bc
00000190: b8bb 1fbd 669b 88bd 29c6 5dbd df51 89bb
000001a0: c02a f1bc 3a95 10bd 56b4 58bb 164f 3cbd
000001b0: e51d b4bd b86b f63c dc47 69bd 11e6 19bd
000001c0: 71ea 333d c3c2 bfba 30a3 e4bc 9761 46bd
000001d0: 466c 423d eaef 2abd f607 48bd 9b06 b5bc
000001e0: 6ab3 c3bd 4b01 5cbd 8161 90bd a270 363d
000001f0: 02d1 1c3c ba95 a8bc c488 613d 14a4 e4bc
00000200: 74bb 66bd 8eb3 00bd 133f bdbd 5dea 64bd
00000210: 55f3 a3bd b275 a83b ddc4 d7bc 1769 e3bc
00000220: bda6 35bc 0caf 283d cdb7 53bd b5e0 bdbd
00000230: 8d6c 3ebd cc36 133c 61ff 03bd 9436 143c
00000240: 1d00 ef3c 9ef2 7fbd 3c30 48bd 2ee0 97bc
00000250: bbf2 b3bd 2736 17bc 3d59 26bc fa6d afbd
00000260: 49ab 61bd 90a3 bfbd b8cd a5bd 0ee1 aebd
00000270: 1ca2 173d c00c 57ba 1887 4ebd 3ead c7bd
00000280: c31e 3dbc 2d9c 3f3d 3b44 14bd a714 a23c
00000290: dd96 54bd 3013 e73a 591d 23bc 935b 423d
000002a0: 5284 d0bc 3760 a1bd c14a 92bd 4a9c 70bd
000002b0: 2f32 4bbc 9163 d53c a111 7e3c 95b2 2b3c
000002c0: 6379 313d f643 eebc 199c ddbc 0c25 f0bb
000002d0: 6b88 2bbd af92 a5bb 33b9 63bd eda0 eb3a
000002e0: c8c6 343d 25d8 02bd 511a ddbc c747 f5bc
000002f0: c987 b0bb e310 8f3c 966e 3dbd b496 0c3d
00000300: 4ad7 28bc 033a 8abd c80a 9fbd 4c75 6dbc
00000310: 01b0 743c 19bb b2bb f0e2 9b3c d3bd 6dbd
00000320: 805e a2bd 32b2 78bd 2342 0fbd a75b 993b
00000330: 3aad acbb 54d9 8abd 3d9b 293d c601 cdbc
00000340: a4ff 74bd a700 48b8 31a6 a8bd 0902 5cbd
00000350: aef2 c2bd 7d20 68bd a1f5 3d3d 5827 70bc
00000360: 245d efbb 27f3 adbc 5aa9 96bd 1e66 0cbd
00000370: 2e03 c9bb 8eb5 293d 61f0 a9bc 07dd 36bd
00000380: 2cc5 c4bd 2a3d 213d 163c 60bd 9ae0 233d
00000390: 2b22 523d 3579 443d 37ee 23bd 1cfd 753d
000003a0: 794f 0bbb 77d6 443d 6d49 4fbd 76d8 423d
000003b0: 7290 223d db9a 97bd 97cd 70bd d488 a1bd
000003c0: f25c 79ba dd2c 58bc 931c 2e3d 6577 59bc
000003d0: 8be2 47bd 66b7 84bd c381 8a3b da6c d1bc
000003e0: 3386 123d 6fe9 b3bd 9712 cabd 7238 c2bd
000003f0: 21ae a6bd c317 87bd db4d 8d3b 1baf 95bd
-0.04704159 -0.09253778 0.0032239202 -0.05983211 -0.093158 -0.009203169 0.031886395 0.022383519
0.010537191 -0.0019589001 0.00028632925 -0.09476226 0.025311014 -0.09063655 -0.03761749 -0.06604606
0.033056404 -0.006715553 -0.03706777 0.03390397 -0.053146727 -0.0071749883 -0.06497552 -0.040740974
0.045855578 -0.02293292 -0.096644916 -0.047961514 0.028901145 0.046713475 0.019131863 0.047045533
-0.03171926 -0.0054244604 0.013139883 -0.07459917 -0.00485216 -0.09991966 -0.0904835 -0.07974071
0.018405948 -0.06794518 -0.04548283 0.030564466 -0.047894318 0.0031408723 -0.00089285907 -0.016675
-0.044560887 0.044459987 0.0070173694 -0.04462208 0.043290697 0.02954575 -0.027544495 -0.005578183
-0.017667761 -0.08796194 -0.018347733 0.019478487 -0.06855565 0.0067438777 0.041517876 -0.014241426
-0.0325723 -0.029191695 -0.07360984 -0.07522818 -0.033640165 -0.090391584 -0.09585221 -0.012324756
0.017363837 -0.01121687 0.01620463 -0.015356477 0.041927356 -0.022758335 -0.03726461 0.02748397
-0.09643407 -0.08331889 0.04155237 -0.09942643 0.022859732 0.03986913 0.0030626769 0.047305923
-0.09249552 0.004559478 0.061524253 -0.024637187 0.054959558 0.04163576 0.004486661 0.0026182483
-0.081828475 -0.007117333 -0.09865715 -0.026473494 -0.038997382 -0.06670265 -0.05414406 -0.004190668
-0.02943933 -0.035298564 -0.0033066473 -0.04597386 -0.087947644 0.030080661 -0.056953296 -0.037572924
0.043924753 -0.0014630187 -0.027909845 -0.048432913 0.04746654 -0.041732706 -0.048835717 -0.022097876
-0.09555705 -0.05371217 -0.070498474 0.04454101 0.009571316 -0.020579208 0.05506207 -0.02791027
-0.056331113 -0.031421237 -0.09240546 -0.05588757 -0.08005396 0.0051409835 -0.026338989 -0.027760072
-0.011087117 0.041182563 -0.051688958 -0.09271375 -0.04649024 0.008985233 -0.03222597 0.009046216
0.029174859 -0.062487237 -0.048874125 -0.018539514 -0.087865315 -0.0092292195 -0.010153112 -0.08565898
-0.05509499 -0.09357369 -0.08095878 -0.085390195 0.037019834 -0.0008203499 -0.050421804 -0.0974984
-0.011542979 0.0467798 -0.036197882 0.019785238 -0.051901687 0.001762962 -0.0099557275 0.047450613
-0.02545372 -0.0787968 -0.071431644 -0.0587428 -0.012402101 0.026048454 0.015507133 0.010479589
0.043328654 -0.02908514 -0.027051972 -0.007328635 -0.041878145 -0.0050528864 -0.05559654 0.0017977037
0.044134885 -0.031944413 -0.026990088 -0.029941453 -0.0053872806 0.017464107 -0.04624804 0.03432341
-0.010305235 -0.06749346 -0.07765728 -0.014493298 0.014934541 -0.0054544327 0.01902911 -0.05804236
-0.07928181 -0.060716815 -0.034975182 0.0046801153 -0.0052696737 -0.06779733 0.041407812 -0.02502526
-0.05981411 -4.7684323e-05 -0.082348235 -0.05371288 -0.09518944 -0.05667161 0.046376828 -0.014657818
-0.0073048044 -0.021234108 -0.0735652 -0.034277074 -0.0061344123 0.04143291 -0.020744504 -0.04464438
-0.0960792 0.03936497 -0.054744802 0.04000912 0.051302116 0.047967155 -0.0400221 0.060055837
-0.0021257086 0.048056092 -0.050607134 0.047569714 0.039688535 -0.07402583 -0.058789816 -0.07887426
-0.0009512446 -0.01319429 0.04250772 -0.013273095 -0.048800033 -0.06480293 0.0042268946 -0.0255646
0.035772514 -0.08784758 -0.09866827 -0.09483422 -0.08138681 -0.06596329 0.0043122596 -0.07308789

model.9.bias f4 [177]
00000000: ee44 133d df11 0a3d febe 583e e646 3d3d
00000010: f7db a5bd 8734 093e 4cab 483c 0c6e 00bd
00000020: ec40 353e 9694 183e 1fce 893d 9eb0 173e
00000030: 484c b7bd 1a51 243e d0ed 1a3e 3906 213d
00000040: 4404 9a3d e627 463e 5361 a43d 3f6a 9cbc
00000050: c604 6ebd 7efc 1f3e 30a4 5c3e 20d7 e53d
00000060: 3816 443d 82e4 133d 5c9a 513e 2184 5b3b
00000070: 813e 15bd 07aa 3e3e 94d9 3ebd e650 2cbc
00000080: d6c9 583d 1401 e83d 3993 58bd 27ab bbbd
00000090: 5128 163e 588b 383e 8885 de3d a05b dbbc
000000a0: e57e 37bc 3e50 90bd b1ef 263d d3e8 02bd
000000b0: 2d77 403c 3a0b f83d bae7 d6bd 7f17 053d
000000c0: 8241 3d3c 5666 173e f33f b6bc 68c8 203e
000000d0: f6dc 153d e54e 92bc d7c7 5d3d 4017 253d
000000e0: 9600 143d 0a96 8f3d 207c c63d 9b6d 203e
000000f0: 7d7d 7b3d 5cb5 343e cae1 2ebd cec1 1c3e
00000100: ca26 973d a951 b83c 203b 85bc a18a 1d3d
00000110: b68a 52bd 06b0 d53d bd82 dc3c c803 163e
00000120: d88f 513e 6d74 203d 605c 513c 9960 25bd
00000130: 4b7e 363e b6c8 213d 0bf3 13bd b71d f83d
00000140: 961d 0a3e 3698 853c 5e6f 603c 63f1 143d
00000150: 6c70 b23d 2ea1 b3bc 04b5 2c3c 3139 7dbc
00000160: 1e9c 0e3a 536d 2c3e f819 133e a977 cabd
00000170: 0394 9f3d 9104 643d 504f 053d fa1c 853a
00000180: 16ad 9b3d 7942 81bd 7e94 90bd bc9e 043e
00000190: 44bd b3bc 1ede 323e 3cc3 af3d 208d 1b3d
000001a0: 2fbf ca3d 4c84 283d ac11 1f3d 0495 163d
000001b0: 0d43 77bc ef25 b73d ce46 90bd d53f 1a3e
000001c0: 86e5 8c3c f88a d93c a5d5 d03c 0f59 993d
000001d0: 3228 233e fb19 fc3d 8ccf 473e 7a54 a6bd
000001e0: 7f58 3a3e 2095 3e3e c707 413e 5af8 8abd
000001f0: e527 e33d 3dec 323e 26ea 4b3e baee 63bd
00000200: fe93 34bd d227 afbd 63c9 abbc e819 1dbb
00000210: 9fda aa3c d914 fa3d f55b e2bc 8524 b7bd
00000220: 3601 45bd 0727 103c e84a abbd fab9 033e
00000230: eb3d ec3c dcf7 a1bd 8cba 853c d4e0 aaba
00000240: 1133 8ebc 8833 2d3e 6540 033e 37ba 1fbd
00000250: b73e 473d f7ad 2a3e 3ccb f7bb 008a e93d
00000260: f923 88bd 617a 4d3b 0c0e 1e3d 3dd5 393e
00000270: e0ba 313e 751e f83d 5f4e 3e3e 8643 3e3d
00000280: 112b 363e e053 a8bd cbae 5a3e ebe0 113d
00000290: 49bc 273e ef20 0c3e e29b 003d c7d9 a4bd
000002a0: 63d6 7bbb f9ad d53d 1287 473e 2217 5b3c
000002b0: cc9f c73d 9839 89bd 6b9c f43d 54f7 a7bd
000002c0: ba07 91bd
0.03595441 0.03370845 0.21166608 0.046210192 -0.080985956 0.13398944 0.012247872 -0.03135495
0.17700547 0.14900431 0.067287676 0.14813468 -0.08950096 0.16046563 0.15129781 0.039312575
0.07520345 0.19351158 0.080263756 -0.01909363 -0.05811002 0.15623662 0.21547008 0.112226725
0.047872752 0.036106594 0.2046904 0.0033495503 -0.03643656 0.18619548 -0.046594217 -0.010517335
0.05292686 0.11328331 -0.052874777 -0.09163504 0.14663817 0.18021905 0.10865313 -0.026777089
-0.011199688 -0.07046555 0.04075593 -0.03196032 0.011747164 0.12111516 -0.10493417 0.03249311
0.011551263 0.14785132 -0.02224729 0.15701449 0.036587678 -0.017859885 0.05414566 0.040305376
0.03613337 0.070110396 0.09691644 0.15666811 0.06139897 0.17647308 -0.042695798 0.15308306
0.07380445 0.022499876 -0.016263545 0.038462285 -0.051401816 0.104339644 0.02691781 0.1464988
0.20465028 0.039173532 0.012778372 -0.040375326 0.17821614 0.039498053 -0.036120456 0.12115043
0.13487849 0.016307931 0.013698427 0.036363017 0.08712849 -0.021927442 0.010541204 -0.01545553
0.00054401334 0.16838579 0.14365375 -0.098861046 0.07791903 0.055668417 0.03254634 0.001015573
0.07601373 -0.06311507 -0.07059573 0.12951177 -0.021940835 0.17467543 0.0858216 0.037976384
0.098997466 0.041141793 0.038835213 0.036763206 -0.01509167 0.08942782 -0.07044755 0.15063412
0.017199289 0.026555523 0.025492499 0.0748769 0.15933302 0.12309643 0.19512767 -0.081215814
0.18197821 0.18611574 0.18850623 -0.067856506 0.11091594 0.1747293 0.1991354 -0.05564759
-0.04408645 -0.08552517 -0.020970052 -0.002397174 0.0208562 0.122110076 -0.02763174 -0.089425124
-0.048096858 0.008798367 -0.083638966 0.12863913 0.028838119 -0.079086035 0.016324304 -0.0013036975
-0.017358335 0.16914189 0.12817533 -0.038995948 0.048643794 0.16667925 -0.007562069 0.114032745
-0.06647486 0.003135346 0.038587615 0.1814775 0.17356443 0.12115184 0.18584584 0.046451114
0.17789866 -0.08219123 0.2135574 0.03561489 0.16380419 0.13684438 0.03139866 -0.0804935
-0.0038427345 0.10433573 0.19485119 0.0133722145 0.09747276 -0.06700438 0.11943897 -0.08201471
-0.07081552

model.12.weight f4 [1, 177]
00000000: 624a 033c 5763 9f3c 1775 553d e595 a83d
00000010: dae6 1cbc c8fc d03c 1121 1cbb a4a6 2dbd
00000020: be2e 393d 9ada a33d f552 443d 0fdf 1c3d
00000030: da00 7f3c 0531 153d c428 413d dd9d 4e3c
00000040: 422b a13d 89f7 523d 8653 8d3d d3af 46bd
00000050: e208 36bd 5553 873d e912 1a3d 6e6e a43d
00000060: 0030 8c3d 3f0a 9ebc dd2f 163d c185 d4bc
00000070: 54a1 08bb 841d 8c3d fbea 27bd 8721 cfbc
00000080: 17d5 17bd 7264 f63c 1278 8cbc 6acf 1fbd
00000090: f043 953d 5cfc 513d 38a4 433d 0490 80bc
000000a0: fa3b 383c f0df 4fbd f026 6d3d a285 52bc
000000b0: ad5d 8f3c 5fae 293d bc7d f8ba e913 2abd
000000c0: 64ac 17bd 140c a33d 32fe 8d3c dde5 923d
000000d0: ebe8 54bd ec81 12bd 5d38 903d 4418 adbc
000000e0: c02e ca3c aa65 4f3d f50d 7c3d d2d9 693d
000000f0: efa4 643d f267 583d a054 38bb 7170 2f3d
00000100: 7ce3 103d a3ef bcba ab35 54b8 b415 7dbc
00000110: 6429 843c 6aaf a53c b54d 153c 671e 0c3d
00000120: 7282 433d 6fd1 503c 32a8 003c 90d4 18bd
00000130: a63d 0a3d 5f5f 9b3c ce7c 76bb 7252 713d
00000140: 96cd 5c3d 1fd5 43bd ea4c 1bbd 8ae5 ee3c
00000150: 2ae3 9c3d 945b 313d dc4c cebb 6f4e 42bc
00000160: 069f f7bc 5a69 953d 19fb 1b3d 6a2a 59bb
00000170: 8145 403d 0753 4b3d 3e8f 57bb 9bf9 d7bc
00000180: 3068 6d3d b68c 933d 28b3 8ebc 3e5f 133d
00000190: 9dee 53bc 04ff 9d3d 2f27 ee3c 5c2f 9d3d
000001a0: c103 1f3d c0ab 693a 1d78 383b e086 c0bc
000001b0: 1c5b 2d3c 119a aa3d 2506 35bd 73ba 323d
000001c0: 5c56 2ebd 2093 8ebc ff4a 843c 112c 8f3d
000001d0: fe75 3d3d 9c03 673d a18d 413d 3bed b3bb
000001e0: 771e 673d 2836 233d e7ab 153d b063 20bc
000001f0: 73dd 023d 92cd 8d3d e9a8 1a3d 5448 ad39
00000200: 4b75 ccbc af21 57bc 9606 cf3a 2b15 0abd
00000210: ca79 0ebd 2ee2 5f3d 76d1 8e3c 6afa 21bb
00000220: 77f8 efbc b399 f43b ea3f 83ba 4c6a 673d
00000230: c82d 4fbd 6360 a43b 21ee a73c c18d 1cbd
00000240: 1cf5 89bb baf5 993d 943a 953c 37ee 14bd
00000250: b1e2 9e3c 0e42 883d e318 31bd 8326 a63c
00000260: 3500 fbbc 540e 3cbd 58ca 5c3c 89a9 8f3d
00000270: 67c5 9a3d 1a44 813d e80e 283d dd1b 813c
00000280: 35aa 2a3d 9329 00bc a371 1e3d 35e4 b53c
00000290: 1531 0f3d 2b7f 6a3d 4b6f f5bc 10f3 d3bc
000002a0: 68ee 05bd 9f54 293d 1b3b 483d 10e0 6b3b
000002b0: 72b1 f73c cb1a 03bc 4899 823d c173 0b3c
000002c0: 2fd5 a0bb
0.00801334 0.019456549 0.05211362 0.08231715 -0.009576524 0.02551116 -0.002382342 -0.04239525
0.045210592 0.08000679 0.047930676 0.038298663 0.015564168 0.0364237 0.047158018 0.01261088
0.07869579 0.0515056 0.069006965 -0.048507523 -0.044442065 0.06607691 0.03761569 0.08028875
0.06845093 -0.019291995 0.03666674 -0.025942685 -0.0020848112 0.06841567 -0.04099558 -0.025284542
-0.037068453 0.030077193 -0.017147098 -0.039016165 0.07288349 0.05126606 0.047764033 -0.015693672
0.011244768 -0.050750673 0.05789846 -0.012849243 0.017500723 0.04142606 -0.001895837 -0.041522894
-0.03702964 0.07961288 0.017333124 0.07172749 -0.05197994 -0.035768434 0.070420004 -0.021129735
0.024680495 0.050634064 0.061536748 0.057092495 0.055821355 0.052833505 -0.0028126612 0.04283184
0.035373196 -0.0014414679 -5.059472e-05 -0.015447069 0.016133018 0.020225246 0.009112765 0.03420868
0.047731824 0.012745245 0.007852601 -0.03731209 0.0337502 0.018966375 -0.003761101 0.058916517
0.053907 -0.04781067 -0.037915148 0.029162187 0.076605156 0.043300226 -0.0062957834 -0.01185952
-0.030227195 0.07295485 0.038081262 -0.0033136853 0.046941284 0.049639728 -0.0032891775 -0.026364138
0.05796069 0.07204573 -0.017419413 0.035979502 -0.012935308 0.07714656 0.029071419 0.07675049
0.03882194 0.00089138374 0.0028147765 -0.023501813 0.010580804 0.08330167 -0.044195313 0.043634843
-0.042562827 -0.017404139 0.016149042 0.06990827 0.046255104 0.056399927 0.04725421 -0.0054909266
0.056425538 0.03984657 0.036540892 -0.009789392 0.03194947 0.06923975 0.03775874 0.0003305102
-0.024958273 -0.013130589 0.001579481 -0.033711594 -0.034784116 0.05465906 0.017433863 -0.0024715909
-0.029293282 0.0074646114 -0.0010013555 0.056497857 -0.05058077 0.005016373 0.02049929 -0.038221125
-0.0042101275 0.07517572 0.018216409 -0.036359992 0.019395204 0.06653224 -0.043236624 0.020282036
-0.030639747 -0.045912102 0.013475977 0.07014758 0.07557183 0.063118175 0.04102984 0.015760357
0.04166623 -0.007822412 0.03868259 0.022203544 0.034958918 0.057250183 -0.029960295 -0.025872737
-0.032698065 0.041340467 0.048884492 0.0035991706 0.03023598 -0.008001993 0.06376892 0.008511485
-0.004908226
